<?xml version="1.0" ?>
<net name="saved_model" version="10">
	<layers>
		<layer id="0" name="input_1" type="Parameter" version="opset1">
			<data element_type="f16" shape="1,5,32"/>
			<output>
				<port id="0" precision="FP16">
					<dim>1</dim>
					<dim>5</dim>
					<dim>32</dim>
				</port>
			</output>
		</layer>
		<layer id="1" name="StatefulPartitionedCall/functional_1/tcn/residual_block_0/matching_conv1D/conv1d/ExpandDims/dim/Output_0/Data__const" type="Const" version="opset1">
			<data element_type="i64" offset="0" shape="1" size="8"/>
			<output>
				<port id="1" precision="I64">
					<dim>1</dim>
				</port>
			</output>
		</layer>
		<layer id="2" name="StatefulPartitionedCall/functional_1/tcn/residual_block_0/matching_conv1D/conv1d/ExpandDims" type="Unsqueeze" version="opset1">
			<input>
				<port id="0">
					<dim>1</dim>
					<dim>5</dim>
					<dim>32</dim>
				</port>
				<port id="1">
					<dim>1</dim>
				</port>
			</input>
			<output>
				<port id="2" precision="FP16">
					<dim>1</dim>
					<dim>1</dim>
					<dim>5</dim>
					<dim>32</dim>
				</port>
			</output>
		</layer>
		<layer id="3" name="StatefulPartitionedCall/functional_1/tcn/residual_block_0/matching_conv1D/conv1d/ExpandDims/Transpose/Cast_120311_const" type="Const" version="opset1">
			<data element_type="i64" offset="8" shape="4" size="32"/>
			<output>
				<port id="1" precision="I64">
					<dim>4</dim>
				</port>
			</output>
		</layer>
		<layer id="4" name="StatefulPartitionedCall/functional_1/tcn/residual_block_0/matching_conv1D/conv1d/ExpandDims/Transpose" type="Transpose" version="opset1">
			<input>
				<port id="0">
					<dim>1</dim>
					<dim>1</dim>
					<dim>5</dim>
					<dim>32</dim>
				</port>
				<port id="1">
					<dim>4</dim>
				</port>
			</input>
			<output>
				<port id="2" precision="FP16">
					<dim>1</dim>
					<dim>32</dim>
					<dim>1</dim>
					<dim>5</dim>
				</port>
			</output>
		</layer>
		<layer id="5" name="StatefulPartitionedCall/functional_1/tcn/residual_block_0/matching_conv1D/conv1d/ExpandDims_1/Output_0/Data__const" type="Const" version="opset1">
			<data element_type="f16" offset="40" shape="64,32,1,1" size="4096"/>
			<output>
				<port id="1" precision="FP16">
					<dim>64</dim>
					<dim>32</dim>
					<dim>1</dim>
					<dim>1</dim>
				</port>
			</output>
		</layer>
		<layer id="6" name="StatefulPartitionedCall/functional_1/tcn/residual_block_0/matching_conv1D/conv1d" type="Convolution" version="opset1">
			<data auto_pad="same_upper" dilations="1,1" output_padding="0,0" pads_begin="0,0" pads_end="0,0" strides="1,1"/>
			<input>
				<port id="0">
					<dim>1</dim>
					<dim>32</dim>
					<dim>1</dim>
					<dim>5</dim>
				</port>
				<port id="1">
					<dim>64</dim>
					<dim>32</dim>
					<dim>1</dim>
					<dim>1</dim>
				</port>
			</input>
			<output>
				<port id="2" precision="FP16">
					<dim>1</dim>
					<dim>64</dim>
					<dim>1</dim>
					<dim>5</dim>
				</port>
			</output>
		</layer>
		<layer id="7" name="StatefulPartitionedCall/functional_1/tcn/residual_block_0/matching_conv1D/conv1d/Transpose/Cast_120271_const" type="Const" version="opset1">
			<data element_type="i64" offset="4136" shape="4" size="32"/>
			<output>
				<port id="1" precision="I64">
					<dim>4</dim>
				</port>
			</output>
		</layer>
		<layer id="8" name="StatefulPartitionedCall/functional_1/tcn/residual_block_0/matching_conv1D/conv1d/Transpose" type="Transpose" version="opset1">
			<input>
				<port id="0">
					<dim>1</dim>
					<dim>64</dim>
					<dim>1</dim>
					<dim>5</dim>
				</port>
				<port id="1">
					<dim>4</dim>
				</port>
			</input>
			<output>
				<port id="2" precision="FP16">
					<dim>1</dim>
					<dim>1</dim>
					<dim>5</dim>
					<dim>64</dim>
				</port>
			</output>
		</layer>
		<layer id="9" name="StatefulPartitionedCall/functional_1/tcn/residual_block_0/matching_conv1D/conv1d/Squeeze/Dims/Output_0/Data__const" type="Const" version="opset1">
			<data element_type="i64" offset="0" shape="1" size="8"/>
			<output>
				<port id="1" precision="I64">
					<dim>1</dim>
				</port>
			</output>
		</layer>
		<layer id="10" name="StatefulPartitionedCall/functional_1/tcn/residual_block_0/matching_conv1D/conv1d/Squeeze" type="Squeeze" version="opset1">
			<input>
				<port id="0">
					<dim>1</dim>
					<dim>1</dim>
					<dim>5</dim>
					<dim>64</dim>
				</port>
				<port id="1">
					<dim>1</dim>
				</port>
			</input>
			<output>
				<port id="2" precision="FP16">
					<dim>1</dim>
					<dim>5</dim>
					<dim>64</dim>
				</port>
			</output>
		</layer>
		<layer id="11" name="StatefulPartitionedCall/functional_1/tcn/residual_block_0/matching_conv1D/BiasAdd/ReadVariableOp/Output_0/Data_/copy_const" type="Const" version="opset1">
			<data element_type="f16" offset="4168" shape="1,1,64" size="128"/>
			<output>
				<port id="1" precision="FP16">
					<dim>1</dim>
					<dim>1</dim>
					<dim>64</dim>
				</port>
			</output>
		</layer>
		<layer id="12" name="StatefulPartitionedCall/functional_1/tcn/residual_block_0/matching_conv1D/BiasAdd/Add" type="Add" version="opset1">
			<input>
				<port id="0">
					<dim>1</dim>
					<dim>5</dim>
					<dim>64</dim>
				</port>
				<port id="1">
					<dim>1</dim>
					<dim>1</dim>
					<dim>64</dim>
				</port>
			</input>
			<output>
				<port id="2" precision="FP16">
					<dim>1</dim>
					<dim>5</dim>
					<dim>64</dim>
				</port>
			</output>
		</layer>
		<layer id="13" name="StatefulPartitionedCall/functional_1/tcn/residual_block_0/conv1D_0/conv1d/ExpandDims/dim/Output_0/Data__const" type="Const" version="opset1">
			<data element_type="i64" offset="0" shape="1" size="8"/>
			<output>
				<port id="1" precision="I64">
					<dim>1</dim>
				</port>
			</output>
		</layer>
		<layer id="14" name="StatefulPartitionedCall/functional_1/tcn/residual_block_0/conv1D_0/conv1d/ExpandDims" type="Unsqueeze" version="opset1">
			<input>
				<port id="0">
					<dim>1</dim>
					<dim>5</dim>
					<dim>32</dim>
				</port>
				<port id="1">
					<dim>1</dim>
				</port>
			</input>
			<output>
				<port id="2" precision="FP16">
					<dim>1</dim>
					<dim>1</dim>
					<dim>5</dim>
					<dim>32</dim>
				</port>
			</output>
		</layer>
		<layer id="15" name="StatefulPartitionedCall/functional_1/tcn/residual_block_0/conv1D_0/conv1d/ExpandDims/Transpose/Cast_120321_const" type="Const" version="opset1">
			<data element_type="i64" offset="8" shape="4" size="32"/>
			<output>
				<port id="1" precision="I64">
					<dim>4</dim>
				</port>
			</output>
		</layer>
		<layer id="16" name="StatefulPartitionedCall/functional_1/tcn/residual_block_0/conv1D_0/conv1d/ExpandDims/Transpose" type="Transpose" version="opset1">
			<input>
				<port id="0">
					<dim>1</dim>
					<dim>1</dim>
					<dim>5</dim>
					<dim>32</dim>
				</port>
				<port id="1">
					<dim>4</dim>
				</port>
			</input>
			<output>
				<port id="2" precision="FP16">
					<dim>1</dim>
					<dim>32</dim>
					<dim>1</dim>
					<dim>5</dim>
				</port>
			</output>
		</layer>
		<layer id="17" name="StatefulPartitionedCall/functional_1/tcn/residual_block_0/conv1D_0/conv1d/ExpandDims_1/Output_0/Data__const" type="Const" version="opset1">
			<data element_type="f16" offset="4296" shape="64,32,1,2" size="8192"/>
			<output>
				<port id="1" precision="FP16">
					<dim>64</dim>
					<dim>32</dim>
					<dim>1</dim>
					<dim>2</dim>
				</port>
			</output>
		</layer>
		<layer id="18" name="StatefulPartitionedCall/functional_1/tcn/residual_block_0/conv1D_0/conv1d" type="Convolution" version="opset1">
			<data auto_pad="same_upper" dilations="1,1" output_padding="0,0" pads_begin="0,0" pads_end="0,0" strides="1,1"/>
			<input>
				<port id="0">
					<dim>1</dim>
					<dim>32</dim>
					<dim>1</dim>
					<dim>5</dim>
				</port>
				<port id="1">
					<dim>64</dim>
					<dim>32</dim>
					<dim>1</dim>
					<dim>2</dim>
				</port>
			</input>
			<output>
				<port id="2" precision="FP16">
					<dim>1</dim>
					<dim>64</dim>
					<dim>1</dim>
					<dim>5</dim>
				</port>
			</output>
		</layer>
		<layer id="19" name="StatefulPartitionedCall/functional_1/tcn/residual_block_0/conv1D_0/conv1d/Transpose/Cast_120249_const" type="Const" version="opset1">
			<data element_type="i64" offset="4136" shape="4" size="32"/>
			<output>
				<port id="1" precision="I64">
					<dim>4</dim>
				</port>
			</output>
		</layer>
		<layer id="20" name="StatefulPartitionedCall/functional_1/tcn/residual_block_0/conv1D_0/conv1d/Transpose" type="Transpose" version="opset1">
			<input>
				<port id="0">
					<dim>1</dim>
					<dim>64</dim>
					<dim>1</dim>
					<dim>5</dim>
				</port>
				<port id="1">
					<dim>4</dim>
				</port>
			</input>
			<output>
				<port id="2" precision="FP16">
					<dim>1</dim>
					<dim>1</dim>
					<dim>5</dim>
					<dim>64</dim>
				</port>
			</output>
		</layer>
		<layer id="21" name="StatefulPartitionedCall/functional_1/tcn/residual_block_0/conv1D_0/conv1d/Squeeze/Dims/Output_0/Data__const" type="Const" version="opset1">
			<data element_type="i64" offset="0" shape="1" size="8"/>
			<output>
				<port id="1" precision="I64">
					<dim>1</dim>
				</port>
			</output>
		</layer>
		<layer id="22" name="StatefulPartitionedCall/functional_1/tcn/residual_block_0/conv1D_0/conv1d/Squeeze" type="Squeeze" version="opset1">
			<input>
				<port id="0">
					<dim>1</dim>
					<dim>1</dim>
					<dim>5</dim>
					<dim>64</dim>
				</port>
				<port id="1">
					<dim>1</dim>
				</port>
			</input>
			<output>
				<port id="2" precision="FP16">
					<dim>1</dim>
					<dim>5</dim>
					<dim>64</dim>
				</port>
			</output>
		</layer>
		<layer id="23" name="StatefulPartitionedCall/functional_1/tcn/residual_block_0/conv1D_0/BiasAdd/ReadVariableOp/Output_0/Data_/copy_const" type="Const" version="opset1">
			<data element_type="f16" offset="12488" shape="1,1,64" size="128"/>
			<output>
				<port id="1" precision="FP16">
					<dim>1</dim>
					<dim>1</dim>
					<dim>64</dim>
				</port>
			</output>
		</layer>
		<layer id="24" name="StatefulPartitionedCall/functional_1/tcn/residual_block_0/conv1D_0/BiasAdd/Add" type="Add" version="opset1">
			<input>
				<port id="0">
					<dim>1</dim>
					<dim>5</dim>
					<dim>64</dim>
				</port>
				<port id="1">
					<dim>1</dim>
					<dim>1</dim>
					<dim>64</dim>
				</port>
			</input>
			<output>
				<port id="2" precision="FP16">
					<dim>1</dim>
					<dim>5</dim>
					<dim>64</dim>
				</port>
			</output>
		</layer>
		<layer id="25" name="StatefulPartitionedCall/functional_1/tcn/residual_block_0/activation/Relu" type="ReLU" version="opset1">
			<input>
				<port id="0">
					<dim>1</dim>
					<dim>5</dim>
					<dim>64</dim>
				</port>
			</input>
			<output>
				<port id="1" precision="FP16">
					<dim>1</dim>
					<dim>5</dim>
					<dim>64</dim>
				</port>
			</output>
		</layer>
		<layer id="26" name="StatefulPartitionedCall/functional_1/tcn/residual_block_0/conv1D_1/conv1d/ExpandDims/dim/Output_0/Data__const" type="Const" version="opset1">
			<data element_type="i64" offset="0" shape="1" size="8"/>
			<output>
				<port id="1" precision="I64">
					<dim>1</dim>
				</port>
			</output>
		</layer>
		<layer id="27" name="StatefulPartitionedCall/functional_1/tcn/residual_block_0/conv1D_1/conv1d/ExpandDims" type="Unsqueeze" version="opset1">
			<input>
				<port id="0">
					<dim>1</dim>
					<dim>5</dim>
					<dim>64</dim>
				</port>
				<port id="1">
					<dim>1</dim>
				</port>
			</input>
			<output>
				<port id="2" precision="FP16">
					<dim>1</dim>
					<dim>1</dim>
					<dim>5</dim>
					<dim>64</dim>
				</port>
			</output>
		</layer>
		<layer id="28" name="StatefulPartitionedCall/functional_1/tcn/residual_block_0/conv1D_1/conv1d/ExpandDims/Transpose/Cast_120285_const" type="Const" version="opset1">
			<data element_type="i64" offset="8" shape="4" size="32"/>
			<output>
				<port id="1" precision="I64">
					<dim>4</dim>
				</port>
			</output>
		</layer>
		<layer id="29" name="StatefulPartitionedCall/functional_1/tcn/residual_block_0/conv1D_1/conv1d/ExpandDims/Transpose" type="Transpose" version="opset1">
			<input>
				<port id="0">
					<dim>1</dim>
					<dim>1</dim>
					<dim>5</dim>
					<dim>64</dim>
				</port>
				<port id="1">
					<dim>4</dim>
				</port>
			</input>
			<output>
				<port id="2" precision="FP16">
					<dim>1</dim>
					<dim>64</dim>
					<dim>1</dim>
					<dim>5</dim>
				</port>
			</output>
		</layer>
		<layer id="30" name="StatefulPartitionedCall/functional_1/tcn/residual_block_0/conv1D_1/conv1d/ExpandDims_1/Output_0/Data__const" type="Const" version="opset1">
			<data element_type="f16" offset="12616" shape="64,64,1,2" size="16384"/>
			<output>
				<port id="1" precision="FP16">
					<dim>64</dim>
					<dim>64</dim>
					<dim>1</dim>
					<dim>2</dim>
				</port>
			</output>
		</layer>
		<layer id="31" name="StatefulPartitionedCall/functional_1/tcn/residual_block_0/conv1D_1/conv1d" type="Convolution" version="opset1">
			<data auto_pad="same_upper" dilations="1,1" output_padding="0,0" pads_begin="0,0" pads_end="0,0" strides="1,1"/>
			<input>
				<port id="0">
					<dim>1</dim>
					<dim>64</dim>
					<dim>1</dim>
					<dim>5</dim>
				</port>
				<port id="1">
					<dim>64</dim>
					<dim>64</dim>
					<dim>1</dim>
					<dim>2</dim>
				</port>
			</input>
			<output>
				<port id="2" precision="FP16">
					<dim>1</dim>
					<dim>64</dim>
					<dim>1</dim>
					<dim>5</dim>
				</port>
			</output>
		</layer>
		<layer id="32" name="StatefulPartitionedCall/functional_1/tcn/residual_block_0/conv1D_1/conv1d/Transpose/Cast_120259_const" type="Const" version="opset1">
			<data element_type="i64" offset="4136" shape="4" size="32"/>
			<output>
				<port id="1" precision="I64">
					<dim>4</dim>
				</port>
			</output>
		</layer>
		<layer id="33" name="StatefulPartitionedCall/functional_1/tcn/residual_block_0/conv1D_1/conv1d/Transpose" type="Transpose" version="opset1">
			<input>
				<port id="0">
					<dim>1</dim>
					<dim>64</dim>
					<dim>1</dim>
					<dim>5</dim>
				</port>
				<port id="1">
					<dim>4</dim>
				</port>
			</input>
			<output>
				<port id="2" precision="FP16">
					<dim>1</dim>
					<dim>1</dim>
					<dim>5</dim>
					<dim>64</dim>
				</port>
			</output>
		</layer>
		<layer id="34" name="StatefulPartitionedCall/functional_1/tcn/residual_block_0/conv1D_1/conv1d/Squeeze/Dims/Output_0/Data__const" type="Const" version="opset1">
			<data element_type="i64" offset="0" shape="1" size="8"/>
			<output>
				<port id="1" precision="I64">
					<dim>1</dim>
				</port>
			</output>
		</layer>
		<layer id="35" name="StatefulPartitionedCall/functional_1/tcn/residual_block_0/conv1D_1/conv1d/Squeeze" type="Squeeze" version="opset1">
			<input>
				<port id="0">
					<dim>1</dim>
					<dim>1</dim>
					<dim>5</dim>
					<dim>64</dim>
				</port>
				<port id="1">
					<dim>1</dim>
				</port>
			</input>
			<output>
				<port id="2" precision="FP16">
					<dim>1</dim>
					<dim>5</dim>
					<dim>64</dim>
				</port>
			</output>
		</layer>
		<layer id="36" name="StatefulPartitionedCall/functional_1/tcn/residual_block_0/conv1D_1/BiasAdd/ReadVariableOp/Output_0/Data_/copy_const" type="Const" version="opset1">
			<data element_type="f16" offset="29000" shape="1,1,64" size="128"/>
			<output>
				<port id="1" precision="FP16">
					<dim>1</dim>
					<dim>1</dim>
					<dim>64</dim>
				</port>
			</output>
		</layer>
		<layer id="37" name="StatefulPartitionedCall/functional_1/tcn/residual_block_0/conv1D_1/BiasAdd/Add" type="Add" version="opset1">
			<input>
				<port id="0">
					<dim>1</dim>
					<dim>5</dim>
					<dim>64</dim>
				</port>
				<port id="1">
					<dim>1</dim>
					<dim>1</dim>
					<dim>64</dim>
				</port>
			</input>
			<output>
				<port id="2" precision="FP16">
					<dim>1</dim>
					<dim>5</dim>
					<dim>64</dim>
				</port>
			</output>
		</layer>
		<layer id="38" name="StatefulPartitionedCall/functional_1/tcn/residual_block_0/activation_1/Relu" type="ReLU" version="opset1">
			<input>
				<port id="0">
					<dim>1</dim>
					<dim>5</dim>
					<dim>64</dim>
				</port>
			</input>
			<output>
				<port id="1" precision="FP16">
					<dim>1</dim>
					<dim>5</dim>
					<dim>64</dim>
				</port>
			</output>
		</layer>
		<layer id="39" name="StatefulPartitionedCall/functional_1/tcn/residual_block_0/add/add" type="Add" version="opset1">
			<input>
				<port id="0">
					<dim>1</dim>
					<dim>5</dim>
					<dim>64</dim>
				</port>
				<port id="1">
					<dim>1</dim>
					<dim>5</dim>
					<dim>64</dim>
				</port>
			</input>
			<output>
				<port id="2" precision="FP16">
					<dim>1</dim>
					<dim>5</dim>
					<dim>64</dim>
				</port>
			</output>
		</layer>
		<layer id="40" name="StatefulPartitionedCall/functional_1/tcn/residual_block_0/activation_2/Relu" type="ReLU" version="opset1">
			<input>
				<port id="0">
					<dim>1</dim>
					<dim>5</dim>
					<dim>64</dim>
				</port>
			</input>
			<output>
				<port id="1" precision="FP16">
					<dim>1</dim>
					<dim>5</dim>
					<dim>64</dim>
				</port>
			</output>
		</layer>
		<layer id="41" name="StatefulPartitionedCall/functional_1/tcn/residual_block_1/conv1D_0/conv1d/SpaceToBatchND/aligned_block_shape/Output_0/Data__const" type="Const" version="opset1">
			<data element_type="i32" offset="29128" shape="3" size="12"/>
			<output>
				<port id="1" precision="I32">
					<dim>3</dim>
				</port>
			</output>
		</layer>
		<layer id="42" name="StatefulPartitionedCall/functional_1/tcn/residual_block_1/conv1D_0/conv1d/SpaceToBatchND/aligned_pads_begin/Output_0/Data__const" type="Const" version="opset1">
			<data element_type="i32" offset="29140" shape="3" size="12"/>
			<output>
				<port id="1" precision="I32">
					<dim>3</dim>
				</port>
			</output>
		</layer>
		<layer id="43" name="StatefulPartitionedCall/functional_1/tcn/residual_block_1/conv1D_0/conv1d/SpaceToBatchND/aligned_pads_end/Output_0/Data__const" type="Const" version="opset1">
			<data element_type="i32" offset="29152" shape="3" size="12"/>
			<output>
				<port id="1" precision="I32">
					<dim>3</dim>
				</port>
			</output>
		</layer>
		<layer id="44" name="StatefulPartitionedCall/functional_1/tcn/residual_block_1/conv1D_0/conv1d/SpaceToBatchND" type="SpaceToBatch" version="opset2">
			<input>
				<port id="0">
					<dim>1</dim>
					<dim>5</dim>
					<dim>64</dim>
				</port>
				<port id="1">
					<dim>3</dim>
				</port>
				<port id="2">
					<dim>3</dim>
				</port>
				<port id="3">
					<dim>3</dim>
				</port>
			</input>
			<output>
				<port id="4" precision="FP16">
					<dim>2</dim>
					<dim>4</dim>
					<dim>64</dim>
				</port>
			</output>
		</layer>
		<layer id="45" name="StatefulPartitionedCall/functional_1/tcn/residual_block_1/conv1D_0/conv1d/ExpandDims/dim/Output_0/Data__const" type="Const" version="opset1">
			<data element_type="i64" offset="0" shape="1" size="8"/>
			<output>
				<port id="1" precision="I64">
					<dim>1</dim>
				</port>
			</output>
		</layer>
		<layer id="46" name="StatefulPartitionedCall/functional_1/tcn/residual_block_1/conv1D_0/conv1d/ExpandDims" type="Unsqueeze" version="opset1">
			<input>
				<port id="0">
					<dim>2</dim>
					<dim>4</dim>
					<dim>64</dim>
				</port>
				<port id="1">
					<dim>1</dim>
				</port>
			</input>
			<output>
				<port id="2" precision="FP16">
					<dim>2</dim>
					<dim>1</dim>
					<dim>4</dim>
					<dim>64</dim>
				</port>
			</output>
		</layer>
		<layer id="47" name="StatefulPartitionedCall/functional_1/tcn/residual_block_1/conv1D_0/conv1d/ExpandDims/Transpose/Cast_120327_const" type="Const" version="opset1">
			<data element_type="i64" offset="8" shape="4" size="32"/>
			<output>
				<port id="1" precision="I64">
					<dim>4</dim>
				</port>
			</output>
		</layer>
		<layer id="48" name="StatefulPartitionedCall/functional_1/tcn/residual_block_1/conv1D_0/conv1d/ExpandDims/Transpose" type="Transpose" version="opset1">
			<input>
				<port id="0">
					<dim>2</dim>
					<dim>1</dim>
					<dim>4</dim>
					<dim>64</dim>
				</port>
				<port id="1">
					<dim>4</dim>
				</port>
			</input>
			<output>
				<port id="2" precision="FP16">
					<dim>2</dim>
					<dim>64</dim>
					<dim>1</dim>
					<dim>4</dim>
				</port>
			</output>
		</layer>
		<layer id="49" name="StatefulPartitionedCall/functional_1/tcn/residual_block_1/conv1D_0/conv1d/ExpandDims_1/Output_0/Data__const" type="Const" version="opset1">
			<data element_type="f16" offset="29164" shape="64,64,1,2" size="16384"/>
			<output>
				<port id="1" precision="FP16">
					<dim>64</dim>
					<dim>64</dim>
					<dim>1</dim>
					<dim>2</dim>
				</port>
			</output>
		</layer>
		<layer id="50" name="StatefulPartitionedCall/functional_1/tcn/residual_block_1/conv1D_0/conv1d" type="Convolution" version="opset1">
			<data auto_pad="valid" dilations="1,1" output_padding="0,0" pads_begin="0,0" pads_end="0,0" strides="1,1"/>
			<input>
				<port id="0">
					<dim>2</dim>
					<dim>64</dim>
					<dim>1</dim>
					<dim>4</dim>
				</port>
				<port id="1">
					<dim>64</dim>
					<dim>64</dim>
					<dim>1</dim>
					<dim>2</dim>
				</port>
			</input>
			<output>
				<port id="2" precision="FP16">
					<dim>2</dim>
					<dim>64</dim>
					<dim>1</dim>
					<dim>3</dim>
				</port>
			</output>
		</layer>
		<layer id="51" name="StatefulPartitionedCall/functional_1/tcn/residual_block_1/conv1D_0/conv1d/Transpose/Cast_120323_const" type="Const" version="opset1">
			<data element_type="i64" offset="4136" shape="4" size="32"/>
			<output>
				<port id="1" precision="I64">
					<dim>4</dim>
				</port>
			</output>
		</layer>
		<layer id="52" name="StatefulPartitionedCall/functional_1/tcn/residual_block_1/conv1D_0/conv1d/Transpose" type="Transpose" version="opset1">
			<input>
				<port id="0">
					<dim>2</dim>
					<dim>64</dim>
					<dim>1</dim>
					<dim>3</dim>
				</port>
				<port id="1">
					<dim>4</dim>
				</port>
			</input>
			<output>
				<port id="2" precision="FP16">
					<dim>2</dim>
					<dim>1</dim>
					<dim>3</dim>
					<dim>64</dim>
				</port>
			</output>
		</layer>
		<layer id="53" name="StatefulPartitionedCall/functional_1/tcn/residual_block_1/conv1D_0/conv1d/Squeeze/Dims/Output_0/Data__const" type="Const" version="opset1">
			<data element_type="i64" offset="0" shape="1" size="8"/>
			<output>
				<port id="1" precision="I64">
					<dim>1</dim>
				</port>
			</output>
		</layer>
		<layer id="54" name="StatefulPartitionedCall/functional_1/tcn/residual_block_1/conv1D_0/conv1d/Squeeze" type="Squeeze" version="opset1">
			<input>
				<port id="0">
					<dim>2</dim>
					<dim>1</dim>
					<dim>3</dim>
					<dim>64</dim>
				</port>
				<port id="1">
					<dim>1</dim>
				</port>
			</input>
			<output>
				<port id="2" precision="FP16">
					<dim>2</dim>
					<dim>3</dim>
					<dim>64</dim>
				</port>
			</output>
		</layer>
		<layer id="55" name="StatefulPartitionedCall/functional_1/tcn/residual_block_1/conv1D_0/conv1d/BatchToSpaceND/aligned_block_shape/Output_0/Data__const" type="Const" version="opset1">
			<data element_type="i32" offset="29128" shape="3" size="12"/>
			<output>
				<port id="1" precision="I32">
					<dim>3</dim>
				</port>
			</output>
		</layer>
		<layer id="56" name="StatefulPartitionedCall/functional_1/tcn/residual_block_1/conv1D_0/conv1d/BatchToSpaceND/aligned_crops_begin/Output_0/Data__const" type="Const" version="opset1">
			<data element_type="i32" offset="45548" shape="3" size="12"/>
			<output>
				<port id="1" precision="I32">
					<dim>3</dim>
				</port>
			</output>
		</layer>
		<layer id="57" name="StatefulPartitionedCall/functional_1/tcn/residual_block_1/conv1D_0/conv1d/BatchToSpaceND/aligned_crops_end/Output_0/Data__const" type="Const" version="opset1">
			<data element_type="i32" offset="29140" shape="3" size="12"/>
			<output>
				<port id="1" precision="I32">
					<dim>3</dim>
				</port>
			</output>
		</layer>
		<layer id="58" name="StatefulPartitionedCall/functional_1/tcn/residual_block_1/conv1D_0/conv1d/BatchToSpaceND" type="BatchToSpace" version="opset2">
			<input>
				<port id="0">
					<dim>2</dim>
					<dim>3</dim>
					<dim>64</dim>
				</port>
				<port id="1">
					<dim>3</dim>
				</port>
				<port id="2">
					<dim>3</dim>
				</port>
				<port id="3">
					<dim>3</dim>
				</port>
			</input>
			<output>
				<port id="4" precision="FP16">
					<dim>1</dim>
					<dim>5</dim>
					<dim>64</dim>
				</port>
			</output>
		</layer>
		<layer id="59" name="StatefulPartitionedCall/functional_1/tcn/residual_block_1/conv1D_0/BiasAdd/ReadVariableOp/Output_0/Data_/copy_const" type="Const" version="opset1">
			<data element_type="f16" offset="45560" shape="1,1,64" size="128"/>
			<output>
				<port id="1" precision="FP16">
					<dim>1</dim>
					<dim>1</dim>
					<dim>64</dim>
				</port>
			</output>
		</layer>
		<layer id="60" name="StatefulPartitionedCall/functional_1/tcn/residual_block_1/conv1D_0/BiasAdd/Add" type="Add" version="opset1">
			<input>
				<port id="0">
					<dim>1</dim>
					<dim>5</dim>
					<dim>64</dim>
				</port>
				<port id="1">
					<dim>1</dim>
					<dim>1</dim>
					<dim>64</dim>
				</port>
			</input>
			<output>
				<port id="2" precision="FP16">
					<dim>1</dim>
					<dim>5</dim>
					<dim>64</dim>
				</port>
			</output>
		</layer>
		<layer id="61" name="StatefulPartitionedCall/functional_1/tcn/residual_block_1/activation_3/Relu" type="ReLU" version="opset1">
			<input>
				<port id="0">
					<dim>1</dim>
					<dim>5</dim>
					<dim>64</dim>
				</port>
			</input>
			<output>
				<port id="1" precision="FP16">
					<dim>1</dim>
					<dim>5</dim>
					<dim>64</dim>
				</port>
			</output>
		</layer>
		<layer id="62" name="StatefulPartitionedCall/functional_1/tcn/residual_block_1/conv1D_1/conv1d/SpaceToBatchND/aligned_block_shape/Output_0/Data__const" type="Const" version="opset1">
			<data element_type="i32" offset="29128" shape="3" size="12"/>
			<output>
				<port id="1" precision="I32">
					<dim>3</dim>
				</port>
			</output>
		</layer>
		<layer id="63" name="StatefulPartitionedCall/functional_1/tcn/residual_block_1/conv1D_1/conv1d/SpaceToBatchND/aligned_pads_begin/Output_0/Data__const" type="Const" version="opset1">
			<data element_type="i32" offset="29140" shape="3" size="12"/>
			<output>
				<port id="1" precision="I32">
					<dim>3</dim>
				</port>
			</output>
		</layer>
		<layer id="64" name="StatefulPartitionedCall/functional_1/tcn/residual_block_1/conv1D_1/conv1d/SpaceToBatchND/aligned_pads_end/Output_0/Data__const" type="Const" version="opset1">
			<data element_type="i32" offset="29152" shape="3" size="12"/>
			<output>
				<port id="1" precision="I32">
					<dim>3</dim>
				</port>
			</output>
		</layer>
		<layer id="65" name="StatefulPartitionedCall/functional_1/tcn/residual_block_1/conv1D_1/conv1d/SpaceToBatchND" type="SpaceToBatch" version="opset2">
			<input>
				<port id="0">
					<dim>1</dim>
					<dim>5</dim>
					<dim>64</dim>
				</port>
				<port id="1">
					<dim>3</dim>
				</port>
				<port id="2">
					<dim>3</dim>
				</port>
				<port id="3">
					<dim>3</dim>
				</port>
			</input>
			<output>
				<port id="4" precision="FP16">
					<dim>2</dim>
					<dim>4</dim>
					<dim>64</dim>
				</port>
			</output>
		</layer>
		<layer id="66" name="StatefulPartitionedCall/functional_1/tcn/residual_block_1/conv1D_1/conv1d/ExpandDims/dim/Output_0/Data__const" type="Const" version="opset1">
			<data element_type="i64" offset="0" shape="1" size="8"/>
			<output>
				<port id="1" precision="I64">
					<dim>1</dim>
				</port>
			</output>
		</layer>
		<layer id="67" name="StatefulPartitionedCall/functional_1/tcn/residual_block_1/conv1D_1/conv1d/ExpandDims" type="Unsqueeze" version="opset1">
			<input>
				<port id="0">
					<dim>2</dim>
					<dim>4</dim>
					<dim>64</dim>
				</port>
				<port id="1">
					<dim>1</dim>
				</port>
			</input>
			<output>
				<port id="2" precision="FP16">
					<dim>2</dim>
					<dim>1</dim>
					<dim>4</dim>
					<dim>64</dim>
				</port>
			</output>
		</layer>
		<layer id="68" name="StatefulPartitionedCall/functional_1/tcn/residual_block_1/conv1D_1/conv1d/ExpandDims/Transpose/Cast_120295_const" type="Const" version="opset1">
			<data element_type="i64" offset="8" shape="4" size="32"/>
			<output>
				<port id="1" precision="I64">
					<dim>4</dim>
				</port>
			</output>
		</layer>
		<layer id="69" name="StatefulPartitionedCall/functional_1/tcn/residual_block_1/conv1D_1/conv1d/ExpandDims/Transpose" type="Transpose" version="opset1">
			<input>
				<port id="0">
					<dim>2</dim>
					<dim>1</dim>
					<dim>4</dim>
					<dim>64</dim>
				</port>
				<port id="1">
					<dim>4</dim>
				</port>
			</input>
			<output>
				<port id="2" precision="FP16">
					<dim>2</dim>
					<dim>64</dim>
					<dim>1</dim>
					<dim>4</dim>
				</port>
			</output>
		</layer>
		<layer id="70" name="StatefulPartitionedCall/functional_1/tcn/residual_block_1/conv1D_1/conv1d/ExpandDims_1/Output_0/Data__const" type="Const" version="opset1">
			<data element_type="f16" offset="45688" shape="64,64,1,2" size="16384"/>
			<output>
				<port id="1" precision="FP16">
					<dim>64</dim>
					<dim>64</dim>
					<dim>1</dim>
					<dim>2</dim>
				</port>
			</output>
		</layer>
		<layer id="71" name="StatefulPartitionedCall/functional_1/tcn/residual_block_1/conv1D_1/conv1d" type="Convolution" version="opset1">
			<data auto_pad="valid" dilations="1,1" output_padding="0,0" pads_begin="0,0" pads_end="0,0" strides="1,1"/>
			<input>
				<port id="0">
					<dim>2</dim>
					<dim>64</dim>
					<dim>1</dim>
					<dim>4</dim>
				</port>
				<port id="1">
					<dim>64</dim>
					<dim>64</dim>
					<dim>1</dim>
					<dim>2</dim>
				</port>
			</input>
			<output>
				<port id="2" precision="FP16">
					<dim>2</dim>
					<dim>64</dim>
					<dim>1</dim>
					<dim>3</dim>
				</port>
			</output>
		</layer>
		<layer id="72" name="StatefulPartitionedCall/functional_1/tcn/residual_block_1/conv1D_1/conv1d/Transpose/Cast_120307_const" type="Const" version="opset1">
			<data element_type="i64" offset="4136" shape="4" size="32"/>
			<output>
				<port id="1" precision="I64">
					<dim>4</dim>
				</port>
			</output>
		</layer>
		<layer id="73" name="StatefulPartitionedCall/functional_1/tcn/residual_block_1/conv1D_1/conv1d/Transpose" type="Transpose" version="opset1">
			<input>
				<port id="0">
					<dim>2</dim>
					<dim>64</dim>
					<dim>1</dim>
					<dim>3</dim>
				</port>
				<port id="1">
					<dim>4</dim>
				</port>
			</input>
			<output>
				<port id="2" precision="FP16">
					<dim>2</dim>
					<dim>1</dim>
					<dim>3</dim>
					<dim>64</dim>
				</port>
			</output>
		</layer>
		<layer id="74" name="StatefulPartitionedCall/functional_1/tcn/residual_block_1/conv1D_1/conv1d/Squeeze/Dims/Output_0/Data__const" type="Const" version="opset1">
			<data element_type="i64" offset="0" shape="1" size="8"/>
			<output>
				<port id="1" precision="I64">
					<dim>1</dim>
				</port>
			</output>
		</layer>
		<layer id="75" name="StatefulPartitionedCall/functional_1/tcn/residual_block_1/conv1D_1/conv1d/Squeeze" type="Squeeze" version="opset1">
			<input>
				<port id="0">
					<dim>2</dim>
					<dim>1</dim>
					<dim>3</dim>
					<dim>64</dim>
				</port>
				<port id="1">
					<dim>1</dim>
				</port>
			</input>
			<output>
				<port id="2" precision="FP16">
					<dim>2</dim>
					<dim>3</dim>
					<dim>64</dim>
				</port>
			</output>
		</layer>
		<layer id="76" name="StatefulPartitionedCall/functional_1/tcn/residual_block_1/conv1D_1/conv1d/BatchToSpaceND/aligned_block_shape/Output_0/Data__const" type="Const" version="opset1">
			<data element_type="i32" offset="29128" shape="3" size="12"/>
			<output>
				<port id="1" precision="I32">
					<dim>3</dim>
				</port>
			</output>
		</layer>
		<layer id="77" name="StatefulPartitionedCall/functional_1/tcn/residual_block_1/conv1D_1/conv1d/BatchToSpaceND/aligned_crops_begin/Output_0/Data__const" type="Const" version="opset1">
			<data element_type="i32" offset="45548" shape="3" size="12"/>
			<output>
				<port id="1" precision="I32">
					<dim>3</dim>
				</port>
			</output>
		</layer>
		<layer id="78" name="StatefulPartitionedCall/functional_1/tcn/residual_block_1/conv1D_1/conv1d/BatchToSpaceND/aligned_crops_end/Output_0/Data__const" type="Const" version="opset1">
			<data element_type="i32" offset="29140" shape="3" size="12"/>
			<output>
				<port id="1" precision="I32">
					<dim>3</dim>
				</port>
			</output>
		</layer>
		<layer id="79" name="StatefulPartitionedCall/functional_1/tcn/residual_block_1/conv1D_1/conv1d/BatchToSpaceND" type="BatchToSpace" version="opset2">
			<input>
				<port id="0">
					<dim>2</dim>
					<dim>3</dim>
					<dim>64</dim>
				</port>
				<port id="1">
					<dim>3</dim>
				</port>
				<port id="2">
					<dim>3</dim>
				</port>
				<port id="3">
					<dim>3</dim>
				</port>
			</input>
			<output>
				<port id="4" precision="FP16">
					<dim>1</dim>
					<dim>5</dim>
					<dim>64</dim>
				</port>
			</output>
		</layer>
		<layer id="80" name="StatefulPartitionedCall/functional_1/tcn/residual_block_1/conv1D_1/BiasAdd/ReadVariableOp/Output_0/Data_/copy_const" type="Const" version="opset1">
			<data element_type="f16" offset="62072" shape="1,1,64" size="128"/>
			<output>
				<port id="1" precision="FP16">
					<dim>1</dim>
					<dim>1</dim>
					<dim>64</dim>
				</port>
			</output>
		</layer>
		<layer id="81" name="StatefulPartitionedCall/functional_1/tcn/residual_block_1/conv1D_1/BiasAdd/Add" type="Add" version="opset1">
			<input>
				<port id="0">
					<dim>1</dim>
					<dim>5</dim>
					<dim>64</dim>
				</port>
				<port id="1">
					<dim>1</dim>
					<dim>1</dim>
					<dim>64</dim>
				</port>
			</input>
			<output>
				<port id="2" precision="FP16">
					<dim>1</dim>
					<dim>5</dim>
					<dim>64</dim>
				</port>
			</output>
		</layer>
		<layer id="82" name="StatefulPartitionedCall/functional_1/tcn/residual_block_1/activation_4/Relu" type="ReLU" version="opset1">
			<input>
				<port id="0">
					<dim>1</dim>
					<dim>5</dim>
					<dim>64</dim>
				</port>
			</input>
			<output>
				<port id="1" precision="FP16">
					<dim>1</dim>
					<dim>5</dim>
					<dim>64</dim>
				</port>
			</output>
		</layer>
		<layer id="83" name="StatefulPartitionedCall/functional_1/tcn/residual_block_1/add_1/add" type="Add" version="opset1">
			<input>
				<port id="0">
					<dim>1</dim>
					<dim>5</dim>
					<dim>64</dim>
				</port>
				<port id="1">
					<dim>1</dim>
					<dim>5</dim>
					<dim>64</dim>
				</port>
			</input>
			<output>
				<port id="2" precision="FP16">
					<dim>1</dim>
					<dim>5</dim>
					<dim>64</dim>
				</port>
			</output>
		</layer>
		<layer id="84" name="StatefulPartitionedCall/functional_1/tcn/residual_block_1/activation_5/Relu" type="ReLU" version="opset1">
			<input>
				<port id="0">
					<dim>1</dim>
					<dim>5</dim>
					<dim>64</dim>
				</port>
			</input>
			<output>
				<port id="1" precision="FP16">
					<dim>1</dim>
					<dim>5</dim>
					<dim>64</dim>
				</port>
			</output>
		</layer>
		<layer id="85" name="StatefulPartitionedCall/functional_1/tcn/residual_block_2/conv1D_0/conv1d/SpaceToBatchND/aligned_block_shape/Output_0/Data__const" type="Const" version="opset1">
			<data element_type="i32" offset="62200" shape="3" size="12"/>
			<output>
				<port id="1" precision="I32">
					<dim>3</dim>
				</port>
			</output>
		</layer>
		<layer id="86" name="StatefulPartitionedCall/functional_1/tcn/residual_block_2/conv1D_0/conv1d/SpaceToBatchND/aligned_pads_begin/Output_0/Data__const" type="Const" version="opset1">
			<data element_type="i32" offset="29152" shape="3" size="12"/>
			<output>
				<port id="1" precision="I32">
					<dim>3</dim>
				</port>
			</output>
		</layer>
		<layer id="87" name="StatefulPartitionedCall/functional_1/tcn/residual_block_2/conv1D_0/conv1d/SpaceToBatchND/aligned_pads_end/Output_0/Data__const" type="Const" version="opset1">
			<data element_type="i32" offset="62212" shape="3" size="12"/>
			<output>
				<port id="1" precision="I32">
					<dim>3</dim>
				</port>
			</output>
		</layer>
		<layer id="88" name="StatefulPartitionedCall/functional_1/tcn/residual_block_2/conv1D_0/conv1d/SpaceToBatchND" type="SpaceToBatch" version="opset2">
			<input>
				<port id="0">
					<dim>1</dim>
					<dim>5</dim>
					<dim>64</dim>
				</port>
				<port id="1">
					<dim>3</dim>
				</port>
				<port id="2">
					<dim>3</dim>
				</port>
				<port id="3">
					<dim>3</dim>
				</port>
			</input>
			<output>
				<port id="4" precision="FP16">
					<dim>4</dim>
					<dim>3</dim>
					<dim>64</dim>
				</port>
			</output>
		</layer>
		<layer id="89" name="StatefulPartitionedCall/functional_1/tcn/residual_block_2/conv1D_0/conv1d/ExpandDims/dim/Output_0/Data__const" type="Const" version="opset1">
			<data element_type="i64" offset="0" shape="1" size="8"/>
			<output>
				<port id="1" precision="I64">
					<dim>1</dim>
				</port>
			</output>
		</layer>
		<layer id="90" name="StatefulPartitionedCall/functional_1/tcn/residual_block_2/conv1D_0/conv1d/ExpandDims" type="Unsqueeze" version="opset1">
			<input>
				<port id="0">
					<dim>4</dim>
					<dim>3</dim>
					<dim>64</dim>
				</port>
				<port id="1">
					<dim>1</dim>
				</port>
			</input>
			<output>
				<port id="2" precision="FP16">
					<dim>4</dim>
					<dim>1</dim>
					<dim>3</dim>
					<dim>64</dim>
				</port>
			</output>
		</layer>
		<layer id="91" name="StatefulPartitionedCall/functional_1/tcn/residual_block_2/conv1D_0/conv1d/ExpandDims/Transpose/Cast_120243_const" type="Const" version="opset1">
			<data element_type="i64" offset="8" shape="4" size="32"/>
			<output>
				<port id="1" precision="I64">
					<dim>4</dim>
				</port>
			</output>
		</layer>
		<layer id="92" name="StatefulPartitionedCall/functional_1/tcn/residual_block_2/conv1D_0/conv1d/ExpandDims/Transpose" type="Transpose" version="opset1">
			<input>
				<port id="0">
					<dim>4</dim>
					<dim>1</dim>
					<dim>3</dim>
					<dim>64</dim>
				</port>
				<port id="1">
					<dim>4</dim>
				</port>
			</input>
			<output>
				<port id="2" precision="FP16">
					<dim>4</dim>
					<dim>64</dim>
					<dim>1</dim>
					<dim>3</dim>
				</port>
			</output>
		</layer>
		<layer id="93" name="StatefulPartitionedCall/functional_1/tcn/residual_block_2/conv1D_0/conv1d/ExpandDims_1/Output_0/Data__const" type="Const" version="opset1">
			<data element_type="f16" offset="62224" shape="64,64,1,2" size="16384"/>
			<output>
				<port id="1" precision="FP16">
					<dim>64</dim>
					<dim>64</dim>
					<dim>1</dim>
					<dim>2</dim>
				</port>
			</output>
		</layer>
		<layer id="94" name="StatefulPartitionedCall/functional_1/tcn/residual_block_2/conv1D_0/conv1d" type="Convolution" version="opset1">
			<data auto_pad="valid" dilations="1,1" output_padding="0,0" pads_begin="0,0" pads_end="0,0" strides="1,1"/>
			<input>
				<port id="0">
					<dim>4</dim>
					<dim>64</dim>
					<dim>1</dim>
					<dim>3</dim>
				</port>
				<port id="1">
					<dim>64</dim>
					<dim>64</dim>
					<dim>1</dim>
					<dim>2</dim>
				</port>
			</input>
			<output>
				<port id="2" precision="FP16">
					<dim>4</dim>
					<dim>64</dim>
					<dim>1</dim>
					<dim>2</dim>
				</port>
			</output>
		</layer>
		<layer id="95" name="StatefulPartitionedCall/functional_1/tcn/residual_block_2/conv1D_0/conv1d/Transpose/Cast_120325_const" type="Const" version="opset1">
			<data element_type="i64" offset="4136" shape="4" size="32"/>
			<output>
				<port id="1" precision="I64">
					<dim>4</dim>
				</port>
			</output>
		</layer>
		<layer id="96" name="StatefulPartitionedCall/functional_1/tcn/residual_block_2/conv1D_0/conv1d/Transpose" type="Transpose" version="opset1">
			<input>
				<port id="0">
					<dim>4</dim>
					<dim>64</dim>
					<dim>1</dim>
					<dim>2</dim>
				</port>
				<port id="1">
					<dim>4</dim>
				</port>
			</input>
			<output>
				<port id="2" precision="FP16">
					<dim>4</dim>
					<dim>1</dim>
					<dim>2</dim>
					<dim>64</dim>
				</port>
			</output>
		</layer>
		<layer id="97" name="StatefulPartitionedCall/functional_1/tcn/residual_block_2/conv1D_0/conv1d/Squeeze/Dims/Output_0/Data__const" type="Const" version="opset1">
			<data element_type="i64" offset="0" shape="1" size="8"/>
			<output>
				<port id="1" precision="I64">
					<dim>1</dim>
				</port>
			</output>
		</layer>
		<layer id="98" name="StatefulPartitionedCall/functional_1/tcn/residual_block_2/conv1D_0/conv1d/Squeeze" type="Squeeze" version="opset1">
			<input>
				<port id="0">
					<dim>4</dim>
					<dim>1</dim>
					<dim>2</dim>
					<dim>64</dim>
				</port>
				<port id="1">
					<dim>1</dim>
				</port>
			</input>
			<output>
				<port id="2" precision="FP16">
					<dim>4</dim>
					<dim>2</dim>
					<dim>64</dim>
				</port>
			</output>
		</layer>
		<layer id="99" name="StatefulPartitionedCall/functional_1/tcn/residual_block_2/conv1D_0/conv1d/BatchToSpaceND/aligned_block_shape/Output_0/Data__const" type="Const" version="opset1">
			<data element_type="i32" offset="62200" shape="3" size="12"/>
			<output>
				<port id="1" precision="I32">
					<dim>3</dim>
				</port>
			</output>
		</layer>
		<layer id="100" name="StatefulPartitionedCall/functional_1/tcn/residual_block_2/conv1D_0/conv1d/BatchToSpaceND/aligned_crops_begin/Output_0/Data__const" type="Const" version="opset1">
			<data element_type="i32" offset="45548" shape="3" size="12"/>
			<output>
				<port id="1" precision="I32">
					<dim>3</dim>
				</port>
			</output>
		</layer>
		<layer id="101" name="StatefulPartitionedCall/functional_1/tcn/residual_block_2/conv1D_0/conv1d/BatchToSpaceND/aligned_crops_end/Output_0/Data__const" type="Const" version="opset1">
			<data element_type="i32" offset="78608" shape="3" size="12"/>
			<output>
				<port id="1" precision="I32">
					<dim>3</dim>
				</port>
			</output>
		</layer>
		<layer id="102" name="StatefulPartitionedCall/functional_1/tcn/residual_block_2/conv1D_0/conv1d/BatchToSpaceND" type="BatchToSpace" version="opset2">
			<input>
				<port id="0">
					<dim>4</dim>
					<dim>2</dim>
					<dim>64</dim>
				</port>
				<port id="1">
					<dim>3</dim>
				</port>
				<port id="2">
					<dim>3</dim>
				</port>
				<port id="3">
					<dim>3</dim>
				</port>
			</input>
			<output>
				<port id="4" precision="FP16">
					<dim>1</dim>
					<dim>5</dim>
					<dim>64</dim>
				</port>
			</output>
		</layer>
		<layer id="103" name="StatefulPartitionedCall/functional_1/tcn/residual_block_2/conv1D_0/BiasAdd/ReadVariableOp/Output_0/Data_/copy_const" type="Const" version="opset1">
			<data element_type="f16" offset="78620" shape="1,1,64" size="128"/>
			<output>
				<port id="1" precision="FP16">
					<dim>1</dim>
					<dim>1</dim>
					<dim>64</dim>
				</port>
			</output>
		</layer>
		<layer id="104" name="StatefulPartitionedCall/functional_1/tcn/residual_block_2/conv1D_0/BiasAdd/Add" type="Add" version="opset1">
			<input>
				<port id="0">
					<dim>1</dim>
					<dim>5</dim>
					<dim>64</dim>
				</port>
				<port id="1">
					<dim>1</dim>
					<dim>1</dim>
					<dim>64</dim>
				</port>
			</input>
			<output>
				<port id="2" precision="FP16">
					<dim>1</dim>
					<dim>5</dim>
					<dim>64</dim>
				</port>
			</output>
		</layer>
		<layer id="105" name="StatefulPartitionedCall/functional_1/tcn/residual_block_2/activation_6/Relu" type="ReLU" version="opset1">
			<input>
				<port id="0">
					<dim>1</dim>
					<dim>5</dim>
					<dim>64</dim>
				</port>
			</input>
			<output>
				<port id="1" precision="FP16">
					<dim>1</dim>
					<dim>5</dim>
					<dim>64</dim>
				</port>
			</output>
		</layer>
		<layer id="106" name="StatefulPartitionedCall/functional_1/tcn/residual_block_2/conv1D_1/conv1d/SpaceToBatchND/aligned_block_shape/Output_0/Data__const" type="Const" version="opset1">
			<data element_type="i32" offset="62200" shape="3" size="12"/>
			<output>
				<port id="1" precision="I32">
					<dim>3</dim>
				</port>
			</output>
		</layer>
		<layer id="107" name="StatefulPartitionedCall/functional_1/tcn/residual_block_2/conv1D_1/conv1d/SpaceToBatchND/aligned_pads_begin/Output_0/Data__const" type="Const" version="opset1">
			<data element_type="i32" offset="29152" shape="3" size="12"/>
			<output>
				<port id="1" precision="I32">
					<dim>3</dim>
				</port>
			</output>
		</layer>
		<layer id="108" name="StatefulPartitionedCall/functional_1/tcn/residual_block_2/conv1D_1/conv1d/SpaceToBatchND/aligned_pads_end/Output_0/Data__const" type="Const" version="opset1">
			<data element_type="i32" offset="62212" shape="3" size="12"/>
			<output>
				<port id="1" precision="I32">
					<dim>3</dim>
				</port>
			</output>
		</layer>
		<layer id="109" name="StatefulPartitionedCall/functional_1/tcn/residual_block_2/conv1D_1/conv1d/SpaceToBatchND" type="SpaceToBatch" version="opset2">
			<input>
				<port id="0">
					<dim>1</dim>
					<dim>5</dim>
					<dim>64</dim>
				</port>
				<port id="1">
					<dim>3</dim>
				</port>
				<port id="2">
					<dim>3</dim>
				</port>
				<port id="3">
					<dim>3</dim>
				</port>
			</input>
			<output>
				<port id="4" precision="FP16">
					<dim>4</dim>
					<dim>3</dim>
					<dim>64</dim>
				</port>
			</output>
		</layer>
		<layer id="110" name="StatefulPartitionedCall/functional_1/tcn/residual_block_2/conv1D_1/conv1d/ExpandDims/dim/Output_0/Data__const" type="Const" version="opset1">
			<data element_type="i64" offset="0" shape="1" size="8"/>
			<output>
				<port id="1" precision="I64">
					<dim>1</dim>
				</port>
			</output>
		</layer>
		<layer id="111" name="StatefulPartitionedCall/functional_1/tcn/residual_block_2/conv1D_1/conv1d/ExpandDims" type="Unsqueeze" version="opset1">
			<input>
				<port id="0">
					<dim>4</dim>
					<dim>3</dim>
					<dim>64</dim>
				</port>
				<port id="1">
					<dim>1</dim>
				</port>
			</input>
			<output>
				<port id="2" precision="FP16">
					<dim>4</dim>
					<dim>1</dim>
					<dim>3</dim>
					<dim>64</dim>
				</port>
			</output>
		</layer>
		<layer id="112" name="StatefulPartitionedCall/functional_1/tcn/residual_block_2/conv1D_1/conv1d/ExpandDims/Transpose/Cast_120257_const" type="Const" version="opset1">
			<data element_type="i64" offset="8" shape="4" size="32"/>
			<output>
				<port id="1" precision="I64">
					<dim>4</dim>
				</port>
			</output>
		</layer>
		<layer id="113" name="StatefulPartitionedCall/functional_1/tcn/residual_block_2/conv1D_1/conv1d/ExpandDims/Transpose" type="Transpose" version="opset1">
			<input>
				<port id="0">
					<dim>4</dim>
					<dim>1</dim>
					<dim>3</dim>
					<dim>64</dim>
				</port>
				<port id="1">
					<dim>4</dim>
				</port>
			</input>
			<output>
				<port id="2" precision="FP16">
					<dim>4</dim>
					<dim>64</dim>
					<dim>1</dim>
					<dim>3</dim>
				</port>
			</output>
		</layer>
		<layer id="114" name="StatefulPartitionedCall/functional_1/tcn/residual_block_2/conv1D_1/conv1d/ExpandDims_1/Output_0/Data__const" type="Const" version="opset1">
			<data element_type="f16" offset="78748" shape="64,64,1,2" size="16384"/>
			<output>
				<port id="1" precision="FP16">
					<dim>64</dim>
					<dim>64</dim>
					<dim>1</dim>
					<dim>2</dim>
				</port>
			</output>
		</layer>
		<layer id="115" name="StatefulPartitionedCall/functional_1/tcn/residual_block_2/conv1D_1/conv1d" type="Convolution" version="opset1">
			<data auto_pad="valid" dilations="1,1" output_padding="0,0" pads_begin="0,0" pads_end="0,0" strides="1,1"/>
			<input>
				<port id="0">
					<dim>4</dim>
					<dim>64</dim>
					<dim>1</dim>
					<dim>3</dim>
				</port>
				<port id="1">
					<dim>64</dim>
					<dim>64</dim>
					<dim>1</dim>
					<dim>2</dim>
				</port>
			</input>
			<output>
				<port id="2" precision="FP16">
					<dim>4</dim>
					<dim>64</dim>
					<dim>1</dim>
					<dim>2</dim>
				</port>
			</output>
		</layer>
		<layer id="116" name="StatefulPartitionedCall/functional_1/tcn/residual_block_2/conv1D_1/conv1d/Transpose/Cast_120291_const" type="Const" version="opset1">
			<data element_type="i64" offset="4136" shape="4" size="32"/>
			<output>
				<port id="1" precision="I64">
					<dim>4</dim>
				</port>
			</output>
		</layer>
		<layer id="117" name="StatefulPartitionedCall/functional_1/tcn/residual_block_2/conv1D_1/conv1d/Transpose" type="Transpose" version="opset1">
			<input>
				<port id="0">
					<dim>4</dim>
					<dim>64</dim>
					<dim>1</dim>
					<dim>2</dim>
				</port>
				<port id="1">
					<dim>4</dim>
				</port>
			</input>
			<output>
				<port id="2" precision="FP16">
					<dim>4</dim>
					<dim>1</dim>
					<dim>2</dim>
					<dim>64</dim>
				</port>
			</output>
		</layer>
		<layer id="118" name="StatefulPartitionedCall/functional_1/tcn/residual_block_2/conv1D_1/conv1d/Squeeze/Dims/Output_0/Data__const" type="Const" version="opset1">
			<data element_type="i64" offset="0" shape="1" size="8"/>
			<output>
				<port id="1" precision="I64">
					<dim>1</dim>
				</port>
			</output>
		</layer>
		<layer id="119" name="StatefulPartitionedCall/functional_1/tcn/residual_block_2/conv1D_1/conv1d/Squeeze" type="Squeeze" version="opset1">
			<input>
				<port id="0">
					<dim>4</dim>
					<dim>1</dim>
					<dim>2</dim>
					<dim>64</dim>
				</port>
				<port id="1">
					<dim>1</dim>
				</port>
			</input>
			<output>
				<port id="2" precision="FP16">
					<dim>4</dim>
					<dim>2</dim>
					<dim>64</dim>
				</port>
			</output>
		</layer>
		<layer id="120" name="StatefulPartitionedCall/functional_1/tcn/residual_block_2/conv1D_1/conv1d/BatchToSpaceND/aligned_block_shape/Output_0/Data__const" type="Const" version="opset1">
			<data element_type="i32" offset="62200" shape="3" size="12"/>
			<output>
				<port id="1" precision="I32">
					<dim>3</dim>
				</port>
			</output>
		</layer>
		<layer id="121" name="StatefulPartitionedCall/functional_1/tcn/residual_block_2/conv1D_1/conv1d/BatchToSpaceND/aligned_crops_begin/Output_0/Data__const" type="Const" version="opset1">
			<data element_type="i32" offset="45548" shape="3" size="12"/>
			<output>
				<port id="1" precision="I32">
					<dim>3</dim>
				</port>
			</output>
		</layer>
		<layer id="122" name="StatefulPartitionedCall/functional_1/tcn/residual_block_2/conv1D_1/conv1d/BatchToSpaceND/aligned_crops_end/Output_0/Data__const" type="Const" version="opset1">
			<data element_type="i32" offset="78608" shape="3" size="12"/>
			<output>
				<port id="1" precision="I32">
					<dim>3</dim>
				</port>
			</output>
		</layer>
		<layer id="123" name="StatefulPartitionedCall/functional_1/tcn/residual_block_2/conv1D_1/conv1d/BatchToSpaceND" type="BatchToSpace" version="opset2">
			<input>
				<port id="0">
					<dim>4</dim>
					<dim>2</dim>
					<dim>64</dim>
				</port>
				<port id="1">
					<dim>3</dim>
				</port>
				<port id="2">
					<dim>3</dim>
				</port>
				<port id="3">
					<dim>3</dim>
				</port>
			</input>
			<output>
				<port id="4" precision="FP16">
					<dim>1</dim>
					<dim>5</dim>
					<dim>64</dim>
				</port>
			</output>
		</layer>
		<layer id="124" name="StatefulPartitionedCall/functional_1/tcn/residual_block_2/conv1D_1/BiasAdd/ReadVariableOp/Output_0/Data_/copy_const" type="Const" version="opset1">
			<data element_type="f16" offset="95132" shape="1,1,64" size="128"/>
			<output>
				<port id="1" precision="FP16">
					<dim>1</dim>
					<dim>1</dim>
					<dim>64</dim>
				</port>
			</output>
		</layer>
		<layer id="125" name="StatefulPartitionedCall/functional_1/tcn/residual_block_2/conv1D_1/BiasAdd/Add" type="Add" version="opset1">
			<input>
				<port id="0">
					<dim>1</dim>
					<dim>5</dim>
					<dim>64</dim>
				</port>
				<port id="1">
					<dim>1</dim>
					<dim>1</dim>
					<dim>64</dim>
				</port>
			</input>
			<output>
				<port id="2" precision="FP16">
					<dim>1</dim>
					<dim>5</dim>
					<dim>64</dim>
				</port>
			</output>
		</layer>
		<layer id="126" name="StatefulPartitionedCall/functional_1/tcn/residual_block_2/activation_7/Relu" type="ReLU" version="opset1">
			<input>
				<port id="0">
					<dim>1</dim>
					<dim>5</dim>
					<dim>64</dim>
				</port>
			</input>
			<output>
				<port id="1" precision="FP16">
					<dim>1</dim>
					<dim>5</dim>
					<dim>64</dim>
				</port>
			</output>
		</layer>
		<layer id="127" name="StatefulPartitionedCall/functional_1/tcn/residual_block_2/add_2/add" type="Add" version="opset1">
			<input>
				<port id="0">
					<dim>1</dim>
					<dim>5</dim>
					<dim>64</dim>
				</port>
				<port id="1">
					<dim>1</dim>
					<dim>5</dim>
					<dim>64</dim>
				</port>
			</input>
			<output>
				<port id="2" precision="FP16">
					<dim>1</dim>
					<dim>5</dim>
					<dim>64</dim>
				</port>
			</output>
		</layer>
		<layer id="128" name="StatefulPartitionedCall/functional_1/tcn/residual_block_2/activation_8/Relu" type="ReLU" version="opset1">
			<input>
				<port id="0">
					<dim>1</dim>
					<dim>5</dim>
					<dim>64</dim>
				</port>
			</input>
			<output>
				<port id="1" precision="FP16">
					<dim>1</dim>
					<dim>5</dim>
					<dim>64</dim>
				</port>
			</output>
		</layer>
		<layer id="129" name="StatefulPartitionedCall/functional_1/tcn/residual_block_3/conv1D_0/conv1d/SpaceToBatchND/aligned_block_shape/Output_0/Data__const" type="Const" version="opset1">
			<data element_type="i32" offset="95260" shape="3" size="12"/>
			<output>
				<port id="1" precision="I32">
					<dim>3</dim>
				</port>
			</output>
		</layer>
		<layer id="130" name="StatefulPartitionedCall/functional_1/tcn/residual_block_3/conv1D_0/conv1d/SpaceToBatchND/aligned_pads_begin/Output_0/Data__const" type="Const" version="opset1">
			<data element_type="i32" offset="95272" shape="3" size="12"/>
			<output>
				<port id="1" precision="I32">
					<dim>3</dim>
				</port>
			</output>
		</layer>
		<layer id="131" name="StatefulPartitionedCall/functional_1/tcn/residual_block_3/conv1D_0/conv1d/SpaceToBatchND/aligned_pads_end/Output_0/Data__const" type="Const" version="opset1">
			<data element_type="i32" offset="95284" shape="3" size="12"/>
			<output>
				<port id="1" precision="I32">
					<dim>3</dim>
				</port>
			</output>
		</layer>
		<layer id="132" name="StatefulPartitionedCall/functional_1/tcn/residual_block_3/conv1D_0/conv1d/SpaceToBatchND" type="SpaceToBatch" version="opset2">
			<input>
				<port id="0">
					<dim>1</dim>
					<dim>5</dim>
					<dim>64</dim>
				</port>
				<port id="1">
					<dim>3</dim>
				</port>
				<port id="2">
					<dim>3</dim>
				</port>
				<port id="3">
					<dim>3</dim>
				</port>
			</input>
			<output>
				<port id="4" precision="FP16">
					<dim>8</dim>
					<dim>2</dim>
					<dim>64</dim>
				</port>
			</output>
		</layer>
		<layer id="133" name="StatefulPartitionedCall/functional_1/tcn/residual_block_3/conv1D_0/conv1d/ExpandDims/dim/Output_0/Data__const" type="Const" version="opset1">
			<data element_type="i64" offset="0" shape="1" size="8"/>
			<output>
				<port id="1" precision="I64">
					<dim>1</dim>
				</port>
			</output>
		</layer>
		<layer id="134" name="StatefulPartitionedCall/functional_1/tcn/residual_block_3/conv1D_0/conv1d/ExpandDims" type="Unsqueeze" version="opset1">
			<input>
				<port id="0">
					<dim>8</dim>
					<dim>2</dim>
					<dim>64</dim>
				</port>
				<port id="1">
					<dim>1</dim>
				</port>
			</input>
			<output>
				<port id="2" precision="FP16">
					<dim>8</dim>
					<dim>1</dim>
					<dim>2</dim>
					<dim>64</dim>
				</port>
			</output>
		</layer>
		<layer id="135" name="StatefulPartitionedCall/functional_1/tcn/residual_block_3/conv1D_0/conv1d/ExpandDims/Transpose/Cast_120231_const" type="Const" version="opset1">
			<data element_type="i64" offset="8" shape="4" size="32"/>
			<output>
				<port id="1" precision="I64">
					<dim>4</dim>
				</port>
			</output>
		</layer>
		<layer id="136" name="StatefulPartitionedCall/functional_1/tcn/residual_block_3/conv1D_0/conv1d/ExpandDims/Transpose" type="Transpose" version="opset1">
			<input>
				<port id="0">
					<dim>8</dim>
					<dim>1</dim>
					<dim>2</dim>
					<dim>64</dim>
				</port>
				<port id="1">
					<dim>4</dim>
				</port>
			</input>
			<output>
				<port id="2" precision="FP16">
					<dim>8</dim>
					<dim>64</dim>
					<dim>1</dim>
					<dim>2</dim>
				</port>
			</output>
		</layer>
		<layer id="137" name="StatefulPartitionedCall/functional_1/tcn/residual_block_3/conv1D_0/conv1d/ExpandDims_1/Output_0/Data__const" type="Const" version="opset1">
			<data element_type="f16" offset="95296" shape="64,64,1,2" size="16384"/>
			<output>
				<port id="1" precision="FP16">
					<dim>64</dim>
					<dim>64</dim>
					<dim>1</dim>
					<dim>2</dim>
				</port>
			</output>
		</layer>
		<layer id="138" name="StatefulPartitionedCall/functional_1/tcn/residual_block_3/conv1D_0/conv1d" type="Convolution" version="opset1">
			<data auto_pad="valid" dilations="1,1" output_padding="0,0" pads_begin="0,0" pads_end="0,0" strides="1,1"/>
			<input>
				<port id="0">
					<dim>8</dim>
					<dim>64</dim>
					<dim>1</dim>
					<dim>2</dim>
				</port>
				<port id="1">
					<dim>64</dim>
					<dim>64</dim>
					<dim>1</dim>
					<dim>2</dim>
				</port>
			</input>
			<output>
				<port id="2" precision="FP16">
					<dim>8</dim>
					<dim>64</dim>
					<dim>1</dim>
					<dim>1</dim>
				</port>
			</output>
		</layer>
		<layer id="139" name="StatefulPartitionedCall/functional_1/tcn/residual_block_3/conv1D_0/conv1d/Transpose/Cast_120267_const" type="Const" version="opset1">
			<data element_type="i64" offset="4136" shape="4" size="32"/>
			<output>
				<port id="1" precision="I64">
					<dim>4</dim>
				</port>
			</output>
		</layer>
		<layer id="140" name="StatefulPartitionedCall/functional_1/tcn/residual_block_3/conv1D_0/conv1d/Transpose" type="Transpose" version="opset1">
			<input>
				<port id="0">
					<dim>8</dim>
					<dim>64</dim>
					<dim>1</dim>
					<dim>1</dim>
				</port>
				<port id="1">
					<dim>4</dim>
				</port>
			</input>
			<output>
				<port id="2" precision="FP16">
					<dim>8</dim>
					<dim>1</dim>
					<dim>1</dim>
					<dim>64</dim>
				</port>
			</output>
		</layer>
		<layer id="141" name="StatefulPartitionedCall/functional_1/tcn/residual_block_3/conv1D_0/conv1d/Squeeze/Dims/Output_0/Data__const" type="Const" version="opset1">
			<data element_type="i64" offset="0" shape="1" size="8"/>
			<output>
				<port id="1" precision="I64">
					<dim>1</dim>
				</port>
			</output>
		</layer>
		<layer id="142" name="StatefulPartitionedCall/functional_1/tcn/residual_block_3/conv1D_0/conv1d/Squeeze" type="Squeeze" version="opset1">
			<input>
				<port id="0">
					<dim>8</dim>
					<dim>1</dim>
					<dim>1</dim>
					<dim>64</dim>
				</port>
				<port id="1">
					<dim>1</dim>
				</port>
			</input>
			<output>
				<port id="2" precision="FP16">
					<dim>8</dim>
					<dim>1</dim>
					<dim>64</dim>
				</port>
			</output>
		</layer>
		<layer id="143" name="StatefulPartitionedCall/functional_1/tcn/residual_block_3/conv1D_0/conv1d/BatchToSpaceND/aligned_block_shape/Output_0/Data__const" type="Const" version="opset1">
			<data element_type="i32" offset="95260" shape="3" size="12"/>
			<output>
				<port id="1" precision="I32">
					<dim>3</dim>
				</port>
			</output>
		</layer>
		<layer id="144" name="StatefulPartitionedCall/functional_1/tcn/residual_block_3/conv1D_0/conv1d/BatchToSpaceND/aligned_crops_begin/Output_0/Data__const" type="Const" version="opset1">
			<data element_type="i32" offset="45548" shape="3" size="12"/>
			<output>
				<port id="1" precision="I32">
					<dim>3</dim>
				</port>
			</output>
		</layer>
		<layer id="145" name="StatefulPartitionedCall/functional_1/tcn/residual_block_3/conv1D_0/conv1d/BatchToSpaceND/aligned_crops_end/Output_0/Data__const" type="Const" version="opset1">
			<data element_type="i32" offset="78608" shape="3" size="12"/>
			<output>
				<port id="1" precision="I32">
					<dim>3</dim>
				</port>
			</output>
		</layer>
		<layer id="146" name="StatefulPartitionedCall/functional_1/tcn/residual_block_3/conv1D_0/conv1d/BatchToSpaceND" type="BatchToSpace" version="opset2">
			<input>
				<port id="0">
					<dim>8</dim>
					<dim>1</dim>
					<dim>64</dim>
				</port>
				<port id="1">
					<dim>3</dim>
				</port>
				<port id="2">
					<dim>3</dim>
				</port>
				<port id="3">
					<dim>3</dim>
				</port>
			</input>
			<output>
				<port id="4" precision="FP16">
					<dim>1</dim>
					<dim>5</dim>
					<dim>64</dim>
				</port>
			</output>
		</layer>
		<layer id="147" name="StatefulPartitionedCall/functional_1/tcn/residual_block_3/conv1D_0/BiasAdd/ReadVariableOp/Output_0/Data_/copy_const" type="Const" version="opset1">
			<data element_type="f16" offset="111680" shape="1,1,64" size="128"/>
			<output>
				<port id="1" precision="FP16">
					<dim>1</dim>
					<dim>1</dim>
					<dim>64</dim>
				</port>
			</output>
		</layer>
		<layer id="148" name="StatefulPartitionedCall/functional_1/tcn/residual_block_3/conv1D_0/BiasAdd/Add" type="Add" version="opset1">
			<input>
				<port id="0">
					<dim>1</dim>
					<dim>5</dim>
					<dim>64</dim>
				</port>
				<port id="1">
					<dim>1</dim>
					<dim>1</dim>
					<dim>64</dim>
				</port>
			</input>
			<output>
				<port id="2" precision="FP16">
					<dim>1</dim>
					<dim>5</dim>
					<dim>64</dim>
				</port>
			</output>
		</layer>
		<layer id="149" name="StatefulPartitionedCall/functional_1/tcn/residual_block_3/activation_9/Relu" type="ReLU" version="opset1">
			<input>
				<port id="0">
					<dim>1</dim>
					<dim>5</dim>
					<dim>64</dim>
				</port>
			</input>
			<output>
				<port id="1" precision="FP16">
					<dim>1</dim>
					<dim>5</dim>
					<dim>64</dim>
				</port>
			</output>
		</layer>
		<layer id="150" name="StatefulPartitionedCall/functional_1/tcn/residual_block_3/conv1D_1/conv1d/SpaceToBatchND/aligned_block_shape/Output_0/Data__const" type="Const" version="opset1">
			<data element_type="i32" offset="95260" shape="3" size="12"/>
			<output>
				<port id="1" precision="I32">
					<dim>3</dim>
				</port>
			</output>
		</layer>
		<layer id="151" name="StatefulPartitionedCall/functional_1/tcn/residual_block_3/conv1D_1/conv1d/SpaceToBatchND/aligned_pads_begin/Output_0/Data__const" type="Const" version="opset1">
			<data element_type="i32" offset="95272" shape="3" size="12"/>
			<output>
				<port id="1" precision="I32">
					<dim>3</dim>
				</port>
			</output>
		</layer>
		<layer id="152" name="StatefulPartitionedCall/functional_1/tcn/residual_block_3/conv1D_1/conv1d/SpaceToBatchND/aligned_pads_end/Output_0/Data__const" type="Const" version="opset1">
			<data element_type="i32" offset="95284" shape="3" size="12"/>
			<output>
				<port id="1" precision="I32">
					<dim>3</dim>
				</port>
			</output>
		</layer>
		<layer id="153" name="StatefulPartitionedCall/functional_1/tcn/residual_block_3/conv1D_1/conv1d/SpaceToBatchND" type="SpaceToBatch" version="opset2">
			<input>
				<port id="0">
					<dim>1</dim>
					<dim>5</dim>
					<dim>64</dim>
				</port>
				<port id="1">
					<dim>3</dim>
				</port>
				<port id="2">
					<dim>3</dim>
				</port>
				<port id="3">
					<dim>3</dim>
				</port>
			</input>
			<output>
				<port id="4" precision="FP16">
					<dim>8</dim>
					<dim>2</dim>
					<dim>64</dim>
				</port>
			</output>
		</layer>
		<layer id="154" name="StatefulPartitionedCall/functional_1/tcn/residual_block_3/conv1D_1/conv1d/ExpandDims/dim/Output_0/Data__const" type="Const" version="opset1">
			<data element_type="i64" offset="0" shape="1" size="8"/>
			<output>
				<port id="1" precision="I64">
					<dim>1</dim>
				</port>
			</output>
		</layer>
		<layer id="155" name="StatefulPartitionedCall/functional_1/tcn/residual_block_3/conv1D_1/conv1d/ExpandDims" type="Unsqueeze" version="opset1">
			<input>
				<port id="0">
					<dim>8</dim>
					<dim>2</dim>
					<dim>64</dim>
				</port>
				<port id="1">
					<dim>1</dim>
				</port>
			</input>
			<output>
				<port id="2" precision="FP16">
					<dim>8</dim>
					<dim>1</dim>
					<dim>2</dim>
					<dim>64</dim>
				</port>
			</output>
		</layer>
		<layer id="156" name="StatefulPartitionedCall/functional_1/tcn/residual_block_3/conv1D_1/conv1d/ExpandDims/Transpose/Cast_120303_const" type="Const" version="opset1">
			<data element_type="i64" offset="8" shape="4" size="32"/>
			<output>
				<port id="1" precision="I64">
					<dim>4</dim>
				</port>
			</output>
		</layer>
		<layer id="157" name="StatefulPartitionedCall/functional_1/tcn/residual_block_3/conv1D_1/conv1d/ExpandDims/Transpose" type="Transpose" version="opset1">
			<input>
				<port id="0">
					<dim>8</dim>
					<dim>1</dim>
					<dim>2</dim>
					<dim>64</dim>
				</port>
				<port id="1">
					<dim>4</dim>
				</port>
			</input>
			<output>
				<port id="2" precision="FP16">
					<dim>8</dim>
					<dim>64</dim>
					<dim>1</dim>
					<dim>2</dim>
				</port>
			</output>
		</layer>
		<layer id="158" name="StatefulPartitionedCall/functional_1/tcn/residual_block_3/conv1D_1/conv1d/ExpandDims_1/Output_0/Data__const" type="Const" version="opset1">
			<data element_type="f16" offset="111808" shape="64,64,1,2" size="16384"/>
			<output>
				<port id="1" precision="FP16">
					<dim>64</dim>
					<dim>64</dim>
					<dim>1</dim>
					<dim>2</dim>
				</port>
			</output>
		</layer>
		<layer id="159" name="StatefulPartitionedCall/functional_1/tcn/residual_block_3/conv1D_1/conv1d" type="Convolution" version="opset1">
			<data auto_pad="valid" dilations="1,1" output_padding="0,0" pads_begin="0,0" pads_end="0,0" strides="1,1"/>
			<input>
				<port id="0">
					<dim>8</dim>
					<dim>64</dim>
					<dim>1</dim>
					<dim>2</dim>
				</port>
				<port id="1">
					<dim>64</dim>
					<dim>64</dim>
					<dim>1</dim>
					<dim>2</dim>
				</port>
			</input>
			<output>
				<port id="2" precision="FP16">
					<dim>8</dim>
					<dim>64</dim>
					<dim>1</dim>
					<dim>1</dim>
				</port>
			</output>
		</layer>
		<layer id="160" name="StatefulPartitionedCall/functional_1/tcn/residual_block_3/conv1D_1/conv1d/Transpose/Cast_120261_const" type="Const" version="opset1">
			<data element_type="i64" offset="4136" shape="4" size="32"/>
			<output>
				<port id="1" precision="I64">
					<dim>4</dim>
				</port>
			</output>
		</layer>
		<layer id="161" name="StatefulPartitionedCall/functional_1/tcn/residual_block_3/conv1D_1/conv1d/Transpose" type="Transpose" version="opset1">
			<input>
				<port id="0">
					<dim>8</dim>
					<dim>64</dim>
					<dim>1</dim>
					<dim>1</dim>
				</port>
				<port id="1">
					<dim>4</dim>
				</port>
			</input>
			<output>
				<port id="2" precision="FP16">
					<dim>8</dim>
					<dim>1</dim>
					<dim>1</dim>
					<dim>64</dim>
				</port>
			</output>
		</layer>
		<layer id="162" name="StatefulPartitionedCall/functional_1/tcn/residual_block_3/conv1D_1/conv1d/Squeeze/Dims/Output_0/Data__const" type="Const" version="opset1">
			<data element_type="i64" offset="0" shape="1" size="8"/>
			<output>
				<port id="1" precision="I64">
					<dim>1</dim>
				</port>
			</output>
		</layer>
		<layer id="163" name="StatefulPartitionedCall/functional_1/tcn/residual_block_3/conv1D_1/conv1d/Squeeze" type="Squeeze" version="opset1">
			<input>
				<port id="0">
					<dim>8</dim>
					<dim>1</dim>
					<dim>1</dim>
					<dim>64</dim>
				</port>
				<port id="1">
					<dim>1</dim>
				</port>
			</input>
			<output>
				<port id="2" precision="FP16">
					<dim>8</dim>
					<dim>1</dim>
					<dim>64</dim>
				</port>
			</output>
		</layer>
		<layer id="164" name="StatefulPartitionedCall/functional_1/tcn/residual_block_3/conv1D_1/conv1d/BatchToSpaceND/aligned_block_shape/Output_0/Data__const" type="Const" version="opset1">
			<data element_type="i32" offset="95260" shape="3" size="12"/>
			<output>
				<port id="1" precision="I32">
					<dim>3</dim>
				</port>
			</output>
		</layer>
		<layer id="165" name="StatefulPartitionedCall/functional_1/tcn/residual_block_3/conv1D_1/conv1d/BatchToSpaceND/aligned_crops_begin/Output_0/Data__const" type="Const" version="opset1">
			<data element_type="i32" offset="45548" shape="3" size="12"/>
			<output>
				<port id="1" precision="I32">
					<dim>3</dim>
				</port>
			</output>
		</layer>
		<layer id="166" name="StatefulPartitionedCall/functional_1/tcn/residual_block_3/conv1D_1/conv1d/BatchToSpaceND/aligned_crops_end/Output_0/Data__const" type="Const" version="opset1">
			<data element_type="i32" offset="78608" shape="3" size="12"/>
			<output>
				<port id="1" precision="I32">
					<dim>3</dim>
				</port>
			</output>
		</layer>
		<layer id="167" name="StatefulPartitionedCall/functional_1/tcn/residual_block_3/conv1D_1/conv1d/BatchToSpaceND" type="BatchToSpace" version="opset2">
			<input>
				<port id="0">
					<dim>8</dim>
					<dim>1</dim>
					<dim>64</dim>
				</port>
				<port id="1">
					<dim>3</dim>
				</port>
				<port id="2">
					<dim>3</dim>
				</port>
				<port id="3">
					<dim>3</dim>
				</port>
			</input>
			<output>
				<port id="4" precision="FP16">
					<dim>1</dim>
					<dim>5</dim>
					<dim>64</dim>
				</port>
			</output>
		</layer>
		<layer id="168" name="StatefulPartitionedCall/functional_1/tcn/residual_block_3/conv1D_1/BiasAdd/ReadVariableOp/Output_0/Data_/copy_const" type="Const" version="opset1">
			<data element_type="f16" offset="128192" shape="1,1,64" size="128"/>
			<output>
				<port id="1" precision="FP16">
					<dim>1</dim>
					<dim>1</dim>
					<dim>64</dim>
				</port>
			</output>
		</layer>
		<layer id="169" name="StatefulPartitionedCall/functional_1/tcn/residual_block_3/conv1D_1/BiasAdd/Add" type="Add" version="opset1">
			<input>
				<port id="0">
					<dim>1</dim>
					<dim>5</dim>
					<dim>64</dim>
				</port>
				<port id="1">
					<dim>1</dim>
					<dim>1</dim>
					<dim>64</dim>
				</port>
			</input>
			<output>
				<port id="2" precision="FP16">
					<dim>1</dim>
					<dim>5</dim>
					<dim>64</dim>
				</port>
			</output>
		</layer>
		<layer id="170" name="StatefulPartitionedCall/functional_1/tcn/residual_block_3/activation_10/Relu" type="ReLU" version="opset1">
			<input>
				<port id="0">
					<dim>1</dim>
					<dim>5</dim>
					<dim>64</dim>
				</port>
			</input>
			<output>
				<port id="1" precision="FP16">
					<dim>1</dim>
					<dim>5</dim>
					<dim>64</dim>
				</port>
			</output>
		</layer>
		<layer id="171" name="StatefulPartitionedCall/functional_1/tcn/residual_block_3/add_3/add" type="Add" version="opset1">
			<input>
				<port id="0">
					<dim>1</dim>
					<dim>5</dim>
					<dim>64</dim>
				</port>
				<port id="1">
					<dim>1</dim>
					<dim>5</dim>
					<dim>64</dim>
				</port>
			</input>
			<output>
				<port id="2" precision="FP16">
					<dim>1</dim>
					<dim>5</dim>
					<dim>64</dim>
				</port>
			</output>
		</layer>
		<layer id="172" name="StatefulPartitionedCall/functional_1/tcn/residual_block_3/activation_11/Relu" type="ReLU" version="opset1">
			<input>
				<port id="0">
					<dim>1</dim>
					<dim>5</dim>
					<dim>64</dim>
				</port>
			</input>
			<output>
				<port id="1" precision="FP16">
					<dim>1</dim>
					<dim>5</dim>
					<dim>64</dim>
				</port>
			</output>
		</layer>
		<layer id="173" name="StatefulPartitionedCall/functional_1/tcn/residual_block_4/conv1D_0/conv1d/SpaceToBatchND/aligned_block_shape/Output_0/Data__const" type="Const" version="opset1">
			<data element_type="i32" offset="128320" shape="3" size="12"/>
			<output>
				<port id="1" precision="I32">
					<dim>3</dim>
				</port>
			</output>
		</layer>
		<layer id="174" name="StatefulPartitionedCall/functional_1/tcn/residual_block_4/conv1D_0/conv1d/SpaceToBatchND/aligned_pads_begin/Output_0/Data__const" type="Const" version="opset1">
			<data element_type="i32" offset="128332" shape="3" size="12"/>
			<output>
				<port id="1" precision="I32">
					<dim>3</dim>
				</port>
			</output>
		</layer>
		<layer id="175" name="StatefulPartitionedCall/functional_1/tcn/residual_block_4/conv1D_0/conv1d/SpaceToBatchND/aligned_pads_end/Output_0/Data__const" type="Const" version="opset1">
			<data element_type="i32" offset="128344" shape="3" size="12"/>
			<output>
				<port id="1" precision="I32">
					<dim>3</dim>
				</port>
			</output>
		</layer>
		<layer id="176" name="StatefulPartitionedCall/functional_1/tcn/residual_block_4/conv1D_0/conv1d/SpaceToBatchND" type="SpaceToBatch" version="opset2">
			<input>
				<port id="0">
					<dim>1</dim>
					<dim>5</dim>
					<dim>64</dim>
				</port>
				<port id="1">
					<dim>3</dim>
				</port>
				<port id="2">
					<dim>3</dim>
				</port>
				<port id="3">
					<dim>3</dim>
				</port>
			</input>
			<output>
				<port id="4" precision="FP16">
					<dim>16</dim>
					<dim>2</dim>
					<dim>64</dim>
				</port>
			</output>
		</layer>
		<layer id="177" name="StatefulPartitionedCall/functional_1/tcn/residual_block_4/conv1D_0/conv1d/ExpandDims/dim/Output_0/Data__const" type="Const" version="opset1">
			<data element_type="i64" offset="0" shape="1" size="8"/>
			<output>
				<port id="1" precision="I64">
					<dim>1</dim>
				</port>
			</output>
		</layer>
		<layer id="178" name="StatefulPartitionedCall/functional_1/tcn/residual_block_4/conv1D_0/conv1d/ExpandDims" type="Unsqueeze" version="opset1">
			<input>
				<port id="0">
					<dim>16</dim>
					<dim>2</dim>
					<dim>64</dim>
				</port>
				<port id="1">
					<dim>1</dim>
				</port>
			</input>
			<output>
				<port id="2" precision="FP16">
					<dim>16</dim>
					<dim>1</dim>
					<dim>2</dim>
					<dim>64</dim>
				</port>
			</output>
		</layer>
		<layer id="179" name="StatefulPartitionedCall/functional_1/tcn/residual_block_4/conv1D_0/conv1d/ExpandDims/Transpose/Cast_120265_const" type="Const" version="opset1">
			<data element_type="i64" offset="8" shape="4" size="32"/>
			<output>
				<port id="1" precision="I64">
					<dim>4</dim>
				</port>
			</output>
		</layer>
		<layer id="180" name="StatefulPartitionedCall/functional_1/tcn/residual_block_4/conv1D_0/conv1d/ExpandDims/Transpose" type="Transpose" version="opset1">
			<input>
				<port id="0">
					<dim>16</dim>
					<dim>1</dim>
					<dim>2</dim>
					<dim>64</dim>
				</port>
				<port id="1">
					<dim>4</dim>
				</port>
			</input>
			<output>
				<port id="2" precision="FP16">
					<dim>16</dim>
					<dim>64</dim>
					<dim>1</dim>
					<dim>2</dim>
				</port>
			</output>
		</layer>
		<layer id="181" name="StatefulPartitionedCall/functional_1/tcn/residual_block_4/conv1D_0/conv1d/ExpandDims_1/Output_0/Data__const" type="Const" version="opset1">
			<data element_type="f16" offset="128356" shape="64,64,1,2" size="16384"/>
			<output>
				<port id="1" precision="FP16">
					<dim>64</dim>
					<dim>64</dim>
					<dim>1</dim>
					<dim>2</dim>
				</port>
			</output>
		</layer>
		<layer id="182" name="StatefulPartitionedCall/functional_1/tcn/residual_block_4/conv1D_0/conv1d" type="Convolution" version="opset1">
			<data auto_pad="valid" dilations="1,1" output_padding="0,0" pads_begin="0,0" pads_end="0,0" strides="1,1"/>
			<input>
				<port id="0">
					<dim>16</dim>
					<dim>64</dim>
					<dim>1</dim>
					<dim>2</dim>
				</port>
				<port id="1">
					<dim>64</dim>
					<dim>64</dim>
					<dim>1</dim>
					<dim>2</dim>
				</port>
			</input>
			<output>
				<port id="2" precision="FP16">
					<dim>16</dim>
					<dim>64</dim>
					<dim>1</dim>
					<dim>1</dim>
				</port>
			</output>
		</layer>
		<layer id="183" name="StatefulPartitionedCall/functional_1/tcn/residual_block_4/conv1D_0/conv1d/Transpose/Cast_120233_const" type="Const" version="opset1">
			<data element_type="i64" offset="4136" shape="4" size="32"/>
			<output>
				<port id="1" precision="I64">
					<dim>4</dim>
				</port>
			</output>
		</layer>
		<layer id="184" name="StatefulPartitionedCall/functional_1/tcn/residual_block_4/conv1D_0/conv1d/Transpose" type="Transpose" version="opset1">
			<input>
				<port id="0">
					<dim>16</dim>
					<dim>64</dim>
					<dim>1</dim>
					<dim>1</dim>
				</port>
				<port id="1">
					<dim>4</dim>
				</port>
			</input>
			<output>
				<port id="2" precision="FP16">
					<dim>16</dim>
					<dim>1</dim>
					<dim>1</dim>
					<dim>64</dim>
				</port>
			</output>
		</layer>
		<layer id="185" name="StatefulPartitionedCall/functional_1/tcn/residual_block_4/conv1D_0/conv1d/Squeeze/Dims/Output_0/Data__const" type="Const" version="opset1">
			<data element_type="i64" offset="0" shape="1" size="8"/>
			<output>
				<port id="1" precision="I64">
					<dim>1</dim>
				</port>
			</output>
		</layer>
		<layer id="186" name="StatefulPartitionedCall/functional_1/tcn/residual_block_4/conv1D_0/conv1d/Squeeze" type="Squeeze" version="opset1">
			<input>
				<port id="0">
					<dim>16</dim>
					<dim>1</dim>
					<dim>1</dim>
					<dim>64</dim>
				</port>
				<port id="1">
					<dim>1</dim>
				</port>
			</input>
			<output>
				<port id="2" precision="FP16">
					<dim>16</dim>
					<dim>1</dim>
					<dim>64</dim>
				</port>
			</output>
		</layer>
		<layer id="187" name="StatefulPartitionedCall/functional_1/tcn/residual_block_4/conv1D_0/conv1d/BatchToSpaceND/aligned_block_shape/Output_0/Data__const" type="Const" version="opset1">
			<data element_type="i32" offset="128320" shape="3" size="12"/>
			<output>
				<port id="1" precision="I32">
					<dim>3</dim>
				</port>
			</output>
		</layer>
		<layer id="188" name="StatefulPartitionedCall/functional_1/tcn/residual_block_4/conv1D_0/conv1d/BatchToSpaceND/aligned_crops_begin/Output_0/Data__const" type="Const" version="opset1">
			<data element_type="i32" offset="45548" shape="3" size="12"/>
			<output>
				<port id="1" precision="I32">
					<dim>3</dim>
				</port>
			</output>
		</layer>
		<layer id="189" name="StatefulPartitionedCall/functional_1/tcn/residual_block_4/conv1D_0/conv1d/BatchToSpaceND/aligned_crops_end/Output_0/Data__const" type="Const" version="opset1">
			<data element_type="i32" offset="144740" shape="3" size="12"/>
			<output>
				<port id="1" precision="I32">
					<dim>3</dim>
				</port>
			</output>
		</layer>
		<layer id="190" name="StatefulPartitionedCall/functional_1/tcn/residual_block_4/conv1D_0/conv1d/BatchToSpaceND" type="BatchToSpace" version="opset2">
			<input>
				<port id="0">
					<dim>16</dim>
					<dim>1</dim>
					<dim>64</dim>
				</port>
				<port id="1">
					<dim>3</dim>
				</port>
				<port id="2">
					<dim>3</dim>
				</port>
				<port id="3">
					<dim>3</dim>
				</port>
			</input>
			<output>
				<port id="4" precision="FP16">
					<dim>1</dim>
					<dim>5</dim>
					<dim>64</dim>
				</port>
			</output>
		</layer>
		<layer id="191" name="StatefulPartitionedCall/functional_1/tcn/residual_block_4/conv1D_0/BiasAdd/ReadVariableOp/Output_0/Data_/copy_const" type="Const" version="opset1">
			<data element_type="f16" offset="144752" shape="1,1,64" size="128"/>
			<output>
				<port id="1" precision="FP16">
					<dim>1</dim>
					<dim>1</dim>
					<dim>64</dim>
				</port>
			</output>
		</layer>
		<layer id="192" name="StatefulPartitionedCall/functional_1/tcn/residual_block_4/conv1D_0/BiasAdd/Add" type="Add" version="opset1">
			<input>
				<port id="0">
					<dim>1</dim>
					<dim>5</dim>
					<dim>64</dim>
				</port>
				<port id="1">
					<dim>1</dim>
					<dim>1</dim>
					<dim>64</dim>
				</port>
			</input>
			<output>
				<port id="2" precision="FP16">
					<dim>1</dim>
					<dim>5</dim>
					<dim>64</dim>
				</port>
			</output>
		</layer>
		<layer id="193" name="StatefulPartitionedCall/functional_1/tcn/residual_block_4/activation_12/Relu" type="ReLU" version="opset1">
			<input>
				<port id="0">
					<dim>1</dim>
					<dim>5</dim>
					<dim>64</dim>
				</port>
			</input>
			<output>
				<port id="1" precision="FP16">
					<dim>1</dim>
					<dim>5</dim>
					<dim>64</dim>
				</port>
			</output>
		</layer>
		<layer id="194" name="StatefulPartitionedCall/functional_1/tcn/residual_block_4/conv1D_1/conv1d/SpaceToBatchND/aligned_block_shape/Output_0/Data__const" type="Const" version="opset1">
			<data element_type="i32" offset="128320" shape="3" size="12"/>
			<output>
				<port id="1" precision="I32">
					<dim>3</dim>
				</port>
			</output>
		</layer>
		<layer id="195" name="StatefulPartitionedCall/functional_1/tcn/residual_block_4/conv1D_1/conv1d/SpaceToBatchND/aligned_pads_begin/Output_0/Data__const" type="Const" version="opset1">
			<data element_type="i32" offset="128332" shape="3" size="12"/>
			<output>
				<port id="1" precision="I32">
					<dim>3</dim>
				</port>
			</output>
		</layer>
		<layer id="196" name="StatefulPartitionedCall/functional_1/tcn/residual_block_4/conv1D_1/conv1d/SpaceToBatchND/aligned_pads_end/Output_0/Data__const" type="Const" version="opset1">
			<data element_type="i32" offset="128344" shape="3" size="12"/>
			<output>
				<port id="1" precision="I32">
					<dim>3</dim>
				</port>
			</output>
		</layer>
		<layer id="197" name="StatefulPartitionedCall/functional_1/tcn/residual_block_4/conv1D_1/conv1d/SpaceToBatchND" type="SpaceToBatch" version="opset2">
			<input>
				<port id="0">
					<dim>1</dim>
					<dim>5</dim>
					<dim>64</dim>
				</port>
				<port id="1">
					<dim>3</dim>
				</port>
				<port id="2">
					<dim>3</dim>
				</port>
				<port id="3">
					<dim>3</dim>
				</port>
			</input>
			<output>
				<port id="4" precision="FP16">
					<dim>16</dim>
					<dim>2</dim>
					<dim>64</dim>
				</port>
			</output>
		</layer>
		<layer id="198" name="StatefulPartitionedCall/functional_1/tcn/residual_block_4/conv1D_1/conv1d/ExpandDims/dim/Output_0/Data__const" type="Const" version="opset1">
			<data element_type="i64" offset="0" shape="1" size="8"/>
			<output>
				<port id="1" precision="I64">
					<dim>1</dim>
				</port>
			</output>
		</layer>
		<layer id="199" name="StatefulPartitionedCall/functional_1/tcn/residual_block_4/conv1D_1/conv1d/ExpandDims" type="Unsqueeze" version="opset1">
			<input>
				<port id="0">
					<dim>16</dim>
					<dim>2</dim>
					<dim>64</dim>
				</port>
				<port id="1">
					<dim>1</dim>
				</port>
			</input>
			<output>
				<port id="2" precision="FP16">
					<dim>16</dim>
					<dim>1</dim>
					<dim>2</dim>
					<dim>64</dim>
				</port>
			</output>
		</layer>
		<layer id="200" name="StatefulPartitionedCall/functional_1/tcn/residual_block_4/conv1D_1/conv1d/ExpandDims/Transpose/Cast_120253_const" type="Const" version="opset1">
			<data element_type="i64" offset="8" shape="4" size="32"/>
			<output>
				<port id="1" precision="I64">
					<dim>4</dim>
				</port>
			</output>
		</layer>
		<layer id="201" name="StatefulPartitionedCall/functional_1/tcn/residual_block_4/conv1D_1/conv1d/ExpandDims/Transpose" type="Transpose" version="opset1">
			<input>
				<port id="0">
					<dim>16</dim>
					<dim>1</dim>
					<dim>2</dim>
					<dim>64</dim>
				</port>
				<port id="1">
					<dim>4</dim>
				</port>
			</input>
			<output>
				<port id="2" precision="FP16">
					<dim>16</dim>
					<dim>64</dim>
					<dim>1</dim>
					<dim>2</dim>
				</port>
			</output>
		</layer>
		<layer id="202" name="StatefulPartitionedCall/functional_1/tcn/residual_block_4/conv1D_1/conv1d/ExpandDims_1/Output_0/Data__const" type="Const" version="opset1">
			<data element_type="f16" offset="144880" shape="64,64,1,2" size="16384"/>
			<output>
				<port id="1" precision="FP16">
					<dim>64</dim>
					<dim>64</dim>
					<dim>1</dim>
					<dim>2</dim>
				</port>
			</output>
		</layer>
		<layer id="203" name="StatefulPartitionedCall/functional_1/tcn/residual_block_4/conv1D_1/conv1d" type="Convolution" version="opset1">
			<data auto_pad="valid" dilations="1,1" output_padding="0,0" pads_begin="0,0" pads_end="0,0" strides="1,1"/>
			<input>
				<port id="0">
					<dim>16</dim>
					<dim>64</dim>
					<dim>1</dim>
					<dim>2</dim>
				</port>
				<port id="1">
					<dim>64</dim>
					<dim>64</dim>
					<dim>1</dim>
					<dim>2</dim>
				</port>
			</input>
			<output>
				<port id="2" precision="FP16">
					<dim>16</dim>
					<dim>64</dim>
					<dim>1</dim>
					<dim>1</dim>
				</port>
			</output>
		</layer>
		<layer id="204" name="StatefulPartitionedCall/functional_1/tcn/residual_block_4/conv1D_1/conv1d/Transpose/Cast_120309_const" type="Const" version="opset1">
			<data element_type="i64" offset="4136" shape="4" size="32"/>
			<output>
				<port id="1" precision="I64">
					<dim>4</dim>
				</port>
			</output>
		</layer>
		<layer id="205" name="StatefulPartitionedCall/functional_1/tcn/residual_block_4/conv1D_1/conv1d/Transpose" type="Transpose" version="opset1">
			<input>
				<port id="0">
					<dim>16</dim>
					<dim>64</dim>
					<dim>1</dim>
					<dim>1</dim>
				</port>
				<port id="1">
					<dim>4</dim>
				</port>
			</input>
			<output>
				<port id="2" precision="FP16">
					<dim>16</dim>
					<dim>1</dim>
					<dim>1</dim>
					<dim>64</dim>
				</port>
			</output>
		</layer>
		<layer id="206" name="StatefulPartitionedCall/functional_1/tcn/residual_block_4/conv1D_1/conv1d/Squeeze/Dims/Output_0/Data__const" type="Const" version="opset1">
			<data element_type="i64" offset="0" shape="1" size="8"/>
			<output>
				<port id="1" precision="I64">
					<dim>1</dim>
				</port>
			</output>
		</layer>
		<layer id="207" name="StatefulPartitionedCall/functional_1/tcn/residual_block_4/conv1D_1/conv1d/Squeeze" type="Squeeze" version="opset1">
			<input>
				<port id="0">
					<dim>16</dim>
					<dim>1</dim>
					<dim>1</dim>
					<dim>64</dim>
				</port>
				<port id="1">
					<dim>1</dim>
				</port>
			</input>
			<output>
				<port id="2" precision="FP16">
					<dim>16</dim>
					<dim>1</dim>
					<dim>64</dim>
				</port>
			</output>
		</layer>
		<layer id="208" name="StatefulPartitionedCall/functional_1/tcn/residual_block_4/conv1D_1/conv1d/BatchToSpaceND/aligned_block_shape/Output_0/Data__const" type="Const" version="opset1">
			<data element_type="i32" offset="128320" shape="3" size="12"/>
			<output>
				<port id="1" precision="I32">
					<dim>3</dim>
				</port>
			</output>
		</layer>
		<layer id="209" name="StatefulPartitionedCall/functional_1/tcn/residual_block_4/conv1D_1/conv1d/BatchToSpaceND/aligned_crops_begin/Output_0/Data__const" type="Const" version="opset1">
			<data element_type="i32" offset="45548" shape="3" size="12"/>
			<output>
				<port id="1" precision="I32">
					<dim>3</dim>
				</port>
			</output>
		</layer>
		<layer id="210" name="StatefulPartitionedCall/functional_1/tcn/residual_block_4/conv1D_1/conv1d/BatchToSpaceND/aligned_crops_end/Output_0/Data__const" type="Const" version="opset1">
			<data element_type="i32" offset="144740" shape="3" size="12"/>
			<output>
				<port id="1" precision="I32">
					<dim>3</dim>
				</port>
			</output>
		</layer>
		<layer id="211" name="StatefulPartitionedCall/functional_1/tcn/residual_block_4/conv1D_1/conv1d/BatchToSpaceND" type="BatchToSpace" version="opset2">
			<input>
				<port id="0">
					<dim>16</dim>
					<dim>1</dim>
					<dim>64</dim>
				</port>
				<port id="1">
					<dim>3</dim>
				</port>
				<port id="2">
					<dim>3</dim>
				</port>
				<port id="3">
					<dim>3</dim>
				</port>
			</input>
			<output>
				<port id="4" precision="FP16">
					<dim>1</dim>
					<dim>5</dim>
					<dim>64</dim>
				</port>
			</output>
		</layer>
		<layer id="212" name="StatefulPartitionedCall/functional_1/tcn/residual_block_4/conv1D_1/BiasAdd/ReadVariableOp/Output_0/Data_/copy_const" type="Const" version="opset1">
			<data element_type="f16" offset="144752" shape="1,1,64" size="128"/>
			<output>
				<port id="1" precision="FP16">
					<dim>1</dim>
					<dim>1</dim>
					<dim>64</dim>
				</port>
			</output>
		</layer>
		<layer id="213" name="StatefulPartitionedCall/functional_1/tcn/residual_block_4/conv1D_1/BiasAdd/Add" type="Add" version="opset1">
			<input>
				<port id="0">
					<dim>1</dim>
					<dim>5</dim>
					<dim>64</dim>
				</port>
				<port id="1">
					<dim>1</dim>
					<dim>1</dim>
					<dim>64</dim>
				</port>
			</input>
			<output>
				<port id="2" precision="FP16">
					<dim>1</dim>
					<dim>5</dim>
					<dim>64</dim>
				</port>
			</output>
		</layer>
		<layer id="214" name="StatefulPartitionedCall/functional_1/tcn/residual_block_4/activation_13/Relu" type="ReLU" version="opset1">
			<input>
				<port id="0">
					<dim>1</dim>
					<dim>5</dim>
					<dim>64</dim>
				</port>
			</input>
			<output>
				<port id="1" precision="FP16">
					<dim>1</dim>
					<dim>5</dim>
					<dim>64</dim>
				</port>
			</output>
		</layer>
		<layer id="215" name="StatefulPartitionedCall/functional_1/tcn/residual_block_4/add_4/add" type="Add" version="opset1">
			<input>
				<port id="0">
					<dim>1</dim>
					<dim>5</dim>
					<dim>64</dim>
				</port>
				<port id="1">
					<dim>1</dim>
					<dim>5</dim>
					<dim>64</dim>
				</port>
			</input>
			<output>
				<port id="2" precision="FP16">
					<dim>1</dim>
					<dim>5</dim>
					<dim>64</dim>
				</port>
			</output>
		</layer>
		<layer id="216" name="StatefulPartitionedCall/functional_1/tcn/residual_block_4/activation_14/Relu" type="ReLU" version="opset1">
			<input>
				<port id="0">
					<dim>1</dim>
					<dim>5</dim>
					<dim>64</dim>
				</port>
			</input>
			<output>
				<port id="1" precision="FP16">
					<dim>1</dim>
					<dim>5</dim>
					<dim>64</dim>
				</port>
			</output>
		</layer>
		<layer id="217" name="StatefulPartitionedCall/functional_1/tcn/residual_block_5/conv1D_0/conv1d/SpaceToBatchND/aligned_block_shape/Output_0/Data__const" type="Const" version="opset1">
			<data element_type="i32" offset="161264" shape="3" size="12"/>
			<output>
				<port id="1" precision="I32">
					<dim>3</dim>
				</port>
			</output>
		</layer>
		<layer id="218" name="StatefulPartitionedCall/functional_1/tcn/residual_block_5/conv1D_0/conv1d/SpaceToBatchND/aligned_pads_begin/Output_0/Data__const" type="Const" version="opset1">
			<data element_type="i32" offset="161276" shape="3" size="12"/>
			<output>
				<port id="1" precision="I32">
					<dim>3</dim>
				</port>
			</output>
		</layer>
		<layer id="219" name="StatefulPartitionedCall/functional_1/tcn/residual_block_5/conv1D_0/conv1d/SpaceToBatchND/aligned_pads_end/Output_0/Data__const" type="Const" version="opset1">
			<data element_type="i32" offset="161288" shape="3" size="12"/>
			<output>
				<port id="1" precision="I32">
					<dim>3</dim>
				</port>
			</output>
		</layer>
		<layer id="220" name="StatefulPartitionedCall/functional_1/tcn/residual_block_5/conv1D_0/conv1d/SpaceToBatchND" type="SpaceToBatch" version="opset2">
			<input>
				<port id="0">
					<dim>1</dim>
					<dim>5</dim>
					<dim>64</dim>
				</port>
				<port id="1">
					<dim>3</dim>
				</port>
				<port id="2">
					<dim>3</dim>
				</port>
				<port id="3">
					<dim>3</dim>
				</port>
			</input>
			<output>
				<port id="4" precision="FP16">
					<dim>32</dim>
					<dim>2</dim>
					<dim>64</dim>
				</port>
			</output>
		</layer>
		<layer id="221" name="StatefulPartitionedCall/functional_1/tcn/residual_block_5/conv1D_0/conv1d/ExpandDims/dim/Output_0/Data__const" type="Const" version="opset1">
			<data element_type="i64" offset="0" shape="1" size="8"/>
			<output>
				<port id="1" precision="I64">
					<dim>1</dim>
				</port>
			</output>
		</layer>
		<layer id="222" name="StatefulPartitionedCall/functional_1/tcn/residual_block_5/conv1D_0/conv1d/ExpandDims" type="Unsqueeze" version="opset1">
			<input>
				<port id="0">
					<dim>32</dim>
					<dim>2</dim>
					<dim>64</dim>
				</port>
				<port id="1">
					<dim>1</dim>
				</port>
			</input>
			<output>
				<port id="2" precision="FP16">
					<dim>32</dim>
					<dim>1</dim>
					<dim>2</dim>
					<dim>64</dim>
				</port>
			</output>
		</layer>
		<layer id="223" name="StatefulPartitionedCall/functional_1/tcn/residual_block_5/conv1D_0/conv1d/ExpandDims/Transpose/Cast_120235_const" type="Const" version="opset1">
			<data element_type="i64" offset="8" shape="4" size="32"/>
			<output>
				<port id="1" precision="I64">
					<dim>4</dim>
				</port>
			</output>
		</layer>
		<layer id="224" name="StatefulPartitionedCall/functional_1/tcn/residual_block_5/conv1D_0/conv1d/ExpandDims/Transpose" type="Transpose" version="opset1">
			<input>
				<port id="0">
					<dim>32</dim>
					<dim>1</dim>
					<dim>2</dim>
					<dim>64</dim>
				</port>
				<port id="1">
					<dim>4</dim>
				</port>
			</input>
			<output>
				<port id="2" precision="FP16">
					<dim>32</dim>
					<dim>64</dim>
					<dim>1</dim>
					<dim>2</dim>
				</port>
			</output>
		</layer>
		<layer id="225" name="StatefulPartitionedCall/functional_1/tcn/residual_block_5/conv1D_0/conv1d/ExpandDims_1/Output_0/Data__const" type="Const" version="opset1">
			<data element_type="f16" offset="161300" shape="64,64,1,2" size="16384"/>
			<output>
				<port id="1" precision="FP16">
					<dim>64</dim>
					<dim>64</dim>
					<dim>1</dim>
					<dim>2</dim>
				</port>
			</output>
		</layer>
		<layer id="226" name="StatefulPartitionedCall/functional_1/tcn/residual_block_5/conv1D_0/conv1d" type="Convolution" version="opset1">
			<data auto_pad="valid" dilations="1,1" output_padding="0,0" pads_begin="0,0" pads_end="0,0" strides="1,1"/>
			<input>
				<port id="0">
					<dim>32</dim>
					<dim>64</dim>
					<dim>1</dim>
					<dim>2</dim>
				</port>
				<port id="1">
					<dim>64</dim>
					<dim>64</dim>
					<dim>1</dim>
					<dim>2</dim>
				</port>
			</input>
			<output>
				<port id="2" precision="FP16">
					<dim>32</dim>
					<dim>64</dim>
					<dim>1</dim>
					<dim>1</dim>
				</port>
			</output>
		</layer>
		<layer id="227" name="StatefulPartitionedCall/functional_1/tcn/residual_block_5/conv1D_0/conv1d/Transpose/Cast_120293_const" type="Const" version="opset1">
			<data element_type="i64" offset="4136" shape="4" size="32"/>
			<output>
				<port id="1" precision="I64">
					<dim>4</dim>
				</port>
			</output>
		</layer>
		<layer id="228" name="StatefulPartitionedCall/functional_1/tcn/residual_block_5/conv1D_0/conv1d/Transpose" type="Transpose" version="opset1">
			<input>
				<port id="0">
					<dim>32</dim>
					<dim>64</dim>
					<dim>1</dim>
					<dim>1</dim>
				</port>
				<port id="1">
					<dim>4</dim>
				</port>
			</input>
			<output>
				<port id="2" precision="FP16">
					<dim>32</dim>
					<dim>1</dim>
					<dim>1</dim>
					<dim>64</dim>
				</port>
			</output>
		</layer>
		<layer id="229" name="StatefulPartitionedCall/functional_1/tcn/residual_block_5/conv1D_0/conv1d/Squeeze/Dims/Output_0/Data__const" type="Const" version="opset1">
			<data element_type="i64" offset="0" shape="1" size="8"/>
			<output>
				<port id="1" precision="I64">
					<dim>1</dim>
				</port>
			</output>
		</layer>
		<layer id="230" name="StatefulPartitionedCall/functional_1/tcn/residual_block_5/conv1D_0/conv1d/Squeeze" type="Squeeze" version="opset1">
			<input>
				<port id="0">
					<dim>32</dim>
					<dim>1</dim>
					<dim>1</dim>
					<dim>64</dim>
				</port>
				<port id="1">
					<dim>1</dim>
				</port>
			</input>
			<output>
				<port id="2" precision="FP16">
					<dim>32</dim>
					<dim>1</dim>
					<dim>64</dim>
				</port>
			</output>
		</layer>
		<layer id="231" name="StatefulPartitionedCall/functional_1/tcn/residual_block_5/conv1D_0/conv1d/BatchToSpaceND/aligned_block_shape/Output_0/Data__const" type="Const" version="opset1">
			<data element_type="i32" offset="161264" shape="3" size="12"/>
			<output>
				<port id="1" precision="I32">
					<dim>3</dim>
				</port>
			</output>
		</layer>
		<layer id="232" name="StatefulPartitionedCall/functional_1/tcn/residual_block_5/conv1D_0/conv1d/BatchToSpaceND/aligned_crops_begin/Output_0/Data__const" type="Const" version="opset1">
			<data element_type="i32" offset="45548" shape="3" size="12"/>
			<output>
				<port id="1" precision="I32">
					<dim>3</dim>
				</port>
			</output>
		</layer>
		<layer id="233" name="StatefulPartitionedCall/functional_1/tcn/residual_block_5/conv1D_0/conv1d/BatchToSpaceND/aligned_crops_end/Output_0/Data__const" type="Const" version="opset1">
			<data element_type="i32" offset="177684" shape="3" size="12"/>
			<output>
				<port id="1" precision="I32">
					<dim>3</dim>
				</port>
			</output>
		</layer>
		<layer id="234" name="StatefulPartitionedCall/functional_1/tcn/residual_block_5/conv1D_0/conv1d/BatchToSpaceND" type="BatchToSpace" version="opset2">
			<input>
				<port id="0">
					<dim>32</dim>
					<dim>1</dim>
					<dim>64</dim>
				</port>
				<port id="1">
					<dim>3</dim>
				</port>
				<port id="2">
					<dim>3</dim>
				</port>
				<port id="3">
					<dim>3</dim>
				</port>
			</input>
			<output>
				<port id="4" precision="FP16">
					<dim>1</dim>
					<dim>5</dim>
					<dim>64</dim>
				</port>
			</output>
		</layer>
		<layer id="235" name="StatefulPartitionedCall/functional_1/tcn/residual_block_5/conv1D_0/BiasAdd/ReadVariableOp/Output_0/Data_/copy_const" type="Const" version="opset1">
			<data element_type="f16" offset="144752" shape="1,1,64" size="128"/>
			<output>
				<port id="1" precision="FP16">
					<dim>1</dim>
					<dim>1</dim>
					<dim>64</dim>
				</port>
			</output>
		</layer>
		<layer id="236" name="StatefulPartitionedCall/functional_1/tcn/residual_block_5/conv1D_0/BiasAdd/Add" type="Add" version="opset1">
			<input>
				<port id="0">
					<dim>1</dim>
					<dim>5</dim>
					<dim>64</dim>
				</port>
				<port id="1">
					<dim>1</dim>
					<dim>1</dim>
					<dim>64</dim>
				</port>
			</input>
			<output>
				<port id="2" precision="FP16">
					<dim>1</dim>
					<dim>5</dim>
					<dim>64</dim>
				</port>
			</output>
		</layer>
		<layer id="237" name="StatefulPartitionedCall/functional_1/tcn/residual_block_5/activation_15/Relu" type="ReLU" version="opset1">
			<input>
				<port id="0">
					<dim>1</dim>
					<dim>5</dim>
					<dim>64</dim>
				</port>
			</input>
			<output>
				<port id="1" precision="FP16">
					<dim>1</dim>
					<dim>5</dim>
					<dim>64</dim>
				</port>
			</output>
		</layer>
		<layer id="238" name="StatefulPartitionedCall/functional_1/tcn/residual_block_5/conv1D_1/conv1d/SpaceToBatchND/aligned_block_shape/Output_0/Data__const" type="Const" version="opset1">
			<data element_type="i32" offset="161264" shape="3" size="12"/>
			<output>
				<port id="1" precision="I32">
					<dim>3</dim>
				</port>
			</output>
		</layer>
		<layer id="239" name="StatefulPartitionedCall/functional_1/tcn/residual_block_5/conv1D_1/conv1d/SpaceToBatchND/aligned_pads_begin/Output_0/Data__const" type="Const" version="opset1">
			<data element_type="i32" offset="161276" shape="3" size="12"/>
			<output>
				<port id="1" precision="I32">
					<dim>3</dim>
				</port>
			</output>
		</layer>
		<layer id="240" name="StatefulPartitionedCall/functional_1/tcn/residual_block_5/conv1D_1/conv1d/SpaceToBatchND/aligned_pads_end/Output_0/Data__const" type="Const" version="opset1">
			<data element_type="i32" offset="161288" shape="3" size="12"/>
			<output>
				<port id="1" precision="I32">
					<dim>3</dim>
				</port>
			</output>
		</layer>
		<layer id="241" name="StatefulPartitionedCall/functional_1/tcn/residual_block_5/conv1D_1/conv1d/SpaceToBatchND" type="SpaceToBatch" version="opset2">
			<input>
				<port id="0">
					<dim>1</dim>
					<dim>5</dim>
					<dim>64</dim>
				</port>
				<port id="1">
					<dim>3</dim>
				</port>
				<port id="2">
					<dim>3</dim>
				</port>
				<port id="3">
					<dim>3</dim>
				</port>
			</input>
			<output>
				<port id="4" precision="FP16">
					<dim>32</dim>
					<dim>2</dim>
					<dim>64</dim>
				</port>
			</output>
		</layer>
		<layer id="242" name="StatefulPartitionedCall/functional_1/tcn/residual_block_5/conv1D_1/conv1d/ExpandDims/dim/Output_0/Data__const" type="Const" version="opset1">
			<data element_type="i64" offset="0" shape="1" size="8"/>
			<output>
				<port id="1" precision="I64">
					<dim>1</dim>
				</port>
			</output>
		</layer>
		<layer id="243" name="StatefulPartitionedCall/functional_1/tcn/residual_block_5/conv1D_1/conv1d/ExpandDims" type="Unsqueeze" version="opset1">
			<input>
				<port id="0">
					<dim>32</dim>
					<dim>2</dim>
					<dim>64</dim>
				</port>
				<port id="1">
					<dim>1</dim>
				</port>
			</input>
			<output>
				<port id="2" precision="FP16">
					<dim>32</dim>
					<dim>1</dim>
					<dim>2</dim>
					<dim>64</dim>
				</port>
			</output>
		</layer>
		<layer id="244" name="StatefulPartitionedCall/functional_1/tcn/residual_block_5/conv1D_1/conv1d/ExpandDims/Transpose/Cast_120297_const" type="Const" version="opset1">
			<data element_type="i64" offset="8" shape="4" size="32"/>
			<output>
				<port id="1" precision="I64">
					<dim>4</dim>
				</port>
			</output>
		</layer>
		<layer id="245" name="StatefulPartitionedCall/functional_1/tcn/residual_block_5/conv1D_1/conv1d/ExpandDims/Transpose" type="Transpose" version="opset1">
			<input>
				<port id="0">
					<dim>32</dim>
					<dim>1</dim>
					<dim>2</dim>
					<dim>64</dim>
				</port>
				<port id="1">
					<dim>4</dim>
				</port>
			</input>
			<output>
				<port id="2" precision="FP16">
					<dim>32</dim>
					<dim>64</dim>
					<dim>1</dim>
					<dim>2</dim>
				</port>
			</output>
		</layer>
		<layer id="246" name="StatefulPartitionedCall/functional_1/tcn/residual_block_5/conv1D_1/conv1d/ExpandDims_1/Output_0/Data__const" type="Const" version="opset1">
			<data element_type="f16" offset="177696" shape="64,64,1,2" size="16384"/>
			<output>
				<port id="1" precision="FP16">
					<dim>64</dim>
					<dim>64</dim>
					<dim>1</dim>
					<dim>2</dim>
				</port>
			</output>
		</layer>
		<layer id="247" name="StatefulPartitionedCall/functional_1/tcn/residual_block_5/conv1D_1/conv1d" type="Convolution" version="opset1">
			<data auto_pad="valid" dilations="1,1" output_padding="0,0" pads_begin="0,0" pads_end="0,0" strides="1,1"/>
			<input>
				<port id="0">
					<dim>32</dim>
					<dim>64</dim>
					<dim>1</dim>
					<dim>2</dim>
				</port>
				<port id="1">
					<dim>64</dim>
					<dim>64</dim>
					<dim>1</dim>
					<dim>2</dim>
				</port>
			</input>
			<output>
				<port id="2" precision="FP16">
					<dim>32</dim>
					<dim>64</dim>
					<dim>1</dim>
					<dim>1</dim>
				</port>
			</output>
		</layer>
		<layer id="248" name="StatefulPartitionedCall/functional_1/tcn/residual_block_5/conv1D_1/conv1d/Transpose/Cast_120329_const" type="Const" version="opset1">
			<data element_type="i64" offset="4136" shape="4" size="32"/>
			<output>
				<port id="1" precision="I64">
					<dim>4</dim>
				</port>
			</output>
		</layer>
		<layer id="249" name="StatefulPartitionedCall/functional_1/tcn/residual_block_5/conv1D_1/conv1d/Transpose" type="Transpose" version="opset1">
			<input>
				<port id="0">
					<dim>32</dim>
					<dim>64</dim>
					<dim>1</dim>
					<dim>1</dim>
				</port>
				<port id="1">
					<dim>4</dim>
				</port>
			</input>
			<output>
				<port id="2" precision="FP16">
					<dim>32</dim>
					<dim>1</dim>
					<dim>1</dim>
					<dim>64</dim>
				</port>
			</output>
		</layer>
		<layer id="250" name="StatefulPartitionedCall/functional_1/tcn/residual_block_5/conv1D_1/conv1d/Squeeze/Dims/Output_0/Data__const" type="Const" version="opset1">
			<data element_type="i64" offset="0" shape="1" size="8"/>
			<output>
				<port id="1" precision="I64">
					<dim>1</dim>
				</port>
			</output>
		</layer>
		<layer id="251" name="StatefulPartitionedCall/functional_1/tcn/residual_block_5/conv1D_1/conv1d/Squeeze" type="Squeeze" version="opset1">
			<input>
				<port id="0">
					<dim>32</dim>
					<dim>1</dim>
					<dim>1</dim>
					<dim>64</dim>
				</port>
				<port id="1">
					<dim>1</dim>
				</port>
			</input>
			<output>
				<port id="2" precision="FP16">
					<dim>32</dim>
					<dim>1</dim>
					<dim>64</dim>
				</port>
			</output>
		</layer>
		<layer id="252" name="StatefulPartitionedCall/functional_1/tcn/residual_block_5/conv1D_1/conv1d/BatchToSpaceND/aligned_block_shape/Output_0/Data__const" type="Const" version="opset1">
			<data element_type="i32" offset="161264" shape="3" size="12"/>
			<output>
				<port id="1" precision="I32">
					<dim>3</dim>
				</port>
			</output>
		</layer>
		<layer id="253" name="StatefulPartitionedCall/functional_1/tcn/residual_block_5/conv1D_1/conv1d/BatchToSpaceND/aligned_crops_begin/Output_0/Data__const" type="Const" version="opset1">
			<data element_type="i32" offset="45548" shape="3" size="12"/>
			<output>
				<port id="1" precision="I32">
					<dim>3</dim>
				</port>
			</output>
		</layer>
		<layer id="254" name="StatefulPartitionedCall/functional_1/tcn/residual_block_5/conv1D_1/conv1d/BatchToSpaceND/aligned_crops_end/Output_0/Data__const" type="Const" version="opset1">
			<data element_type="i32" offset="177684" shape="3" size="12"/>
			<output>
				<port id="1" precision="I32">
					<dim>3</dim>
				</port>
			</output>
		</layer>
		<layer id="255" name="StatefulPartitionedCall/functional_1/tcn/residual_block_5/conv1D_1/conv1d/BatchToSpaceND" type="BatchToSpace" version="opset2">
			<input>
				<port id="0">
					<dim>32</dim>
					<dim>1</dim>
					<dim>64</dim>
				</port>
				<port id="1">
					<dim>3</dim>
				</port>
				<port id="2">
					<dim>3</dim>
				</port>
				<port id="3">
					<dim>3</dim>
				</port>
			</input>
			<output>
				<port id="4" precision="FP16">
					<dim>1</dim>
					<dim>5</dim>
					<dim>64</dim>
				</port>
			</output>
		</layer>
		<layer id="256" name="StatefulPartitionedCall/functional_1/tcn/residual_block_5/conv1D_1/BiasAdd/ReadVariableOp/Output_0/Data_/copy_const" type="Const" version="opset1">
			<data element_type="f16" offset="144752" shape="1,1,64" size="128"/>
			<output>
				<port id="1" precision="FP16">
					<dim>1</dim>
					<dim>1</dim>
					<dim>64</dim>
				</port>
			</output>
		</layer>
		<layer id="257" name="StatefulPartitionedCall/functional_1/tcn/residual_block_5/conv1D_1/BiasAdd/Add" type="Add" version="opset1">
			<input>
				<port id="0">
					<dim>1</dim>
					<dim>5</dim>
					<dim>64</dim>
				</port>
				<port id="1">
					<dim>1</dim>
					<dim>1</dim>
					<dim>64</dim>
				</port>
			</input>
			<output>
				<port id="2" precision="FP16">
					<dim>1</dim>
					<dim>5</dim>
					<dim>64</dim>
				</port>
			</output>
		</layer>
		<layer id="258" name="StatefulPartitionedCall/functional_1/tcn/residual_block_5/activation_16/Relu" type="ReLU" version="opset1">
			<input>
				<port id="0">
					<dim>1</dim>
					<dim>5</dim>
					<dim>64</dim>
				</port>
			</input>
			<output>
				<port id="1" precision="FP16">
					<dim>1</dim>
					<dim>5</dim>
					<dim>64</dim>
				</port>
			</output>
		</layer>
		<layer id="259" name="StatefulPartitionedCall/functional_1/tcn/residual_block_5/add_5/add" type="Add" version="opset1">
			<input>
				<port id="0">
					<dim>1</dim>
					<dim>5</dim>
					<dim>64</dim>
				</port>
				<port id="1">
					<dim>1</dim>
					<dim>5</dim>
					<dim>64</dim>
				</port>
			</input>
			<output>
				<port id="2" precision="FP16">
					<dim>1</dim>
					<dim>5</dim>
					<dim>64</dim>
				</port>
			</output>
		</layer>
		<layer id="260" name="StatefulPartitionedCall/functional_1/tcn/residual_block_5/activation_17/Relu" type="ReLU" version="opset1">
			<input>
				<port id="0">
					<dim>1</dim>
					<dim>5</dim>
					<dim>64</dim>
				</port>
			</input>
			<output>
				<port id="1" precision="FP16">
					<dim>1</dim>
					<dim>5</dim>
					<dim>64</dim>
				</port>
			</output>
		</layer>
		<layer id="261" name="StatefulPartitionedCall/functional_1/tcn_1/residual_block_0/conv1D_0/conv1d/ExpandDims/dim/Output_0/Data__const" type="Const" version="opset1">
			<data element_type="i64" offset="0" shape="1" size="8"/>
			<output>
				<port id="1" precision="I64">
					<dim>1</dim>
				</port>
			</output>
		</layer>
		<layer id="262" name="StatefulPartitionedCall/functional_1/tcn_1/residual_block_0/conv1D_0/conv1d/ExpandDims" type="Unsqueeze" version="opset1">
			<input>
				<port id="0">
					<dim>1</dim>
					<dim>5</dim>
					<dim>64</dim>
				</port>
				<port id="1">
					<dim>1</dim>
				</port>
			</input>
			<output>
				<port id="2" precision="FP16">
					<dim>1</dim>
					<dim>1</dim>
					<dim>5</dim>
					<dim>64</dim>
				</port>
			</output>
		</layer>
		<layer id="263" name="StatefulPartitionedCall/functional_1/tcn_1/residual_block_0/conv1D_0/conv1d/ExpandDims/Transpose/Cast_120275_const" type="Const" version="opset1">
			<data element_type="i64" offset="8" shape="4" size="32"/>
			<output>
				<port id="1" precision="I64">
					<dim>4</dim>
				</port>
			</output>
		</layer>
		<layer id="264" name="StatefulPartitionedCall/functional_1/tcn_1/residual_block_0/conv1D_0/conv1d/ExpandDims/Transpose" type="Transpose" version="opset1">
			<input>
				<port id="0">
					<dim>1</dim>
					<dim>1</dim>
					<dim>5</dim>
					<dim>64</dim>
				</port>
				<port id="1">
					<dim>4</dim>
				</port>
			</input>
			<output>
				<port id="2" precision="FP16">
					<dim>1</dim>
					<dim>64</dim>
					<dim>1</dim>
					<dim>5</dim>
				</port>
			</output>
		</layer>
		<layer id="265" name="StatefulPartitionedCall/functional_1/tcn_1/residual_block_0/conv1D_0/conv1d/ExpandDims_1/Output_0/Data__const" type="Const" version="opset1">
			<data element_type="f16" offset="194080" shape="64,64,1,2" size="16384"/>
			<output>
				<port id="1" precision="FP16">
					<dim>64</dim>
					<dim>64</dim>
					<dim>1</dim>
					<dim>2</dim>
				</port>
			</output>
		</layer>
		<layer id="266" name="StatefulPartitionedCall/functional_1/tcn_1/residual_block_0/conv1D_0/conv1d" type="Convolution" version="opset1">
			<data auto_pad="same_upper" dilations="1,1" output_padding="0,0" pads_begin="0,0" pads_end="0,0" strides="1,1"/>
			<input>
				<port id="0">
					<dim>1</dim>
					<dim>64</dim>
					<dim>1</dim>
					<dim>5</dim>
				</port>
				<port id="1">
					<dim>64</dim>
					<dim>64</dim>
					<dim>1</dim>
					<dim>2</dim>
				</port>
			</input>
			<output>
				<port id="2" precision="FP16">
					<dim>1</dim>
					<dim>64</dim>
					<dim>1</dim>
					<dim>5</dim>
				</port>
			</output>
		</layer>
		<layer id="267" name="StatefulPartitionedCall/functional_1/tcn_1/residual_block_0/conv1D_0/conv1d/Transpose/Cast_120319_const" type="Const" version="opset1">
			<data element_type="i64" offset="4136" shape="4" size="32"/>
			<output>
				<port id="1" precision="I64">
					<dim>4</dim>
				</port>
			</output>
		</layer>
		<layer id="268" name="StatefulPartitionedCall/functional_1/tcn_1/residual_block_0/conv1D_0/conv1d/Transpose" type="Transpose" version="opset1">
			<input>
				<port id="0">
					<dim>1</dim>
					<dim>64</dim>
					<dim>1</dim>
					<dim>5</dim>
				</port>
				<port id="1">
					<dim>4</dim>
				</port>
			</input>
			<output>
				<port id="2" precision="FP16">
					<dim>1</dim>
					<dim>1</dim>
					<dim>5</dim>
					<dim>64</dim>
				</port>
			</output>
		</layer>
		<layer id="269" name="StatefulPartitionedCall/functional_1/tcn_1/residual_block_0/conv1D_0/conv1d/Squeeze/Dims/Output_0/Data__const" type="Const" version="opset1">
			<data element_type="i64" offset="0" shape="1" size="8"/>
			<output>
				<port id="1" precision="I64">
					<dim>1</dim>
				</port>
			</output>
		</layer>
		<layer id="270" name="StatefulPartitionedCall/functional_1/tcn_1/residual_block_0/conv1D_0/conv1d/Squeeze" type="Squeeze" version="opset1">
			<input>
				<port id="0">
					<dim>1</dim>
					<dim>1</dim>
					<dim>5</dim>
					<dim>64</dim>
				</port>
				<port id="1">
					<dim>1</dim>
				</port>
			</input>
			<output>
				<port id="2" precision="FP16">
					<dim>1</dim>
					<dim>5</dim>
					<dim>64</dim>
				</port>
			</output>
		</layer>
		<layer id="271" name="StatefulPartitionedCall/functional_1/tcn_1/residual_block_0/conv1D_0/BiasAdd/ReadVariableOp/Output_0/Data_/copy_const" type="Const" version="opset1">
			<data element_type="f16" offset="210464" shape="1,1,64" size="128"/>
			<output>
				<port id="1" precision="FP16">
					<dim>1</dim>
					<dim>1</dim>
					<dim>64</dim>
				</port>
			</output>
		</layer>
		<layer id="272" name="StatefulPartitionedCall/functional_1/tcn_1/residual_block_0/conv1D_0/BiasAdd/Add" type="Add" version="opset1">
			<input>
				<port id="0">
					<dim>1</dim>
					<dim>5</dim>
					<dim>64</dim>
				</port>
				<port id="1">
					<dim>1</dim>
					<dim>1</dim>
					<dim>64</dim>
				</port>
			</input>
			<output>
				<port id="2" precision="FP16">
					<dim>1</dim>
					<dim>5</dim>
					<dim>64</dim>
				</port>
			</output>
		</layer>
		<layer id="273" name="StatefulPartitionedCall/functional_1/tcn_1/residual_block_0/activation_18/Relu" type="ReLU" version="opset1">
			<input>
				<port id="0">
					<dim>1</dim>
					<dim>5</dim>
					<dim>64</dim>
				</port>
			</input>
			<output>
				<port id="1" precision="FP16">
					<dim>1</dim>
					<dim>5</dim>
					<dim>64</dim>
				</port>
			</output>
		</layer>
		<layer id="274" name="StatefulPartitionedCall/functional_1/tcn_1/residual_block_0/conv1D_1/conv1d/ExpandDims/dim/Output_0/Data__const" type="Const" version="opset1">
			<data element_type="i64" offset="0" shape="1" size="8"/>
			<output>
				<port id="1" precision="I64">
					<dim>1</dim>
				</port>
			</output>
		</layer>
		<layer id="275" name="StatefulPartitionedCall/functional_1/tcn_1/residual_block_0/conv1D_1/conv1d/ExpandDims" type="Unsqueeze" version="opset1">
			<input>
				<port id="0">
					<dim>1</dim>
					<dim>5</dim>
					<dim>64</dim>
				</port>
				<port id="1">
					<dim>1</dim>
				</port>
			</input>
			<output>
				<port id="2" precision="FP16">
					<dim>1</dim>
					<dim>1</dim>
					<dim>5</dim>
					<dim>64</dim>
				</port>
			</output>
		</layer>
		<layer id="276" name="StatefulPartitionedCall/functional_1/tcn_1/residual_block_0/conv1D_1/conv1d/ExpandDims/Transpose/Cast_120279_const" type="Const" version="opset1">
			<data element_type="i64" offset="8" shape="4" size="32"/>
			<output>
				<port id="1" precision="I64">
					<dim>4</dim>
				</port>
			</output>
		</layer>
		<layer id="277" name="StatefulPartitionedCall/functional_1/tcn_1/residual_block_0/conv1D_1/conv1d/ExpandDims/Transpose" type="Transpose" version="opset1">
			<input>
				<port id="0">
					<dim>1</dim>
					<dim>1</dim>
					<dim>5</dim>
					<dim>64</dim>
				</port>
				<port id="1">
					<dim>4</dim>
				</port>
			</input>
			<output>
				<port id="2" precision="FP16">
					<dim>1</dim>
					<dim>64</dim>
					<dim>1</dim>
					<dim>5</dim>
				</port>
			</output>
		</layer>
		<layer id="278" name="StatefulPartitionedCall/functional_1/tcn_1/residual_block_0/conv1D_1/conv1d/ExpandDims_1/Output_0/Data__const" type="Const" version="opset1">
			<data element_type="f16" offset="210592" shape="64,64,1,2" size="16384"/>
			<output>
				<port id="1" precision="FP16">
					<dim>64</dim>
					<dim>64</dim>
					<dim>1</dim>
					<dim>2</dim>
				</port>
			</output>
		</layer>
		<layer id="279" name="StatefulPartitionedCall/functional_1/tcn_1/residual_block_0/conv1D_1/conv1d" type="Convolution" version="opset1">
			<data auto_pad="same_upper" dilations="1,1" output_padding="0,0" pads_begin="0,0" pads_end="0,0" strides="1,1"/>
			<input>
				<port id="0">
					<dim>1</dim>
					<dim>64</dim>
					<dim>1</dim>
					<dim>5</dim>
				</port>
				<port id="1">
					<dim>64</dim>
					<dim>64</dim>
					<dim>1</dim>
					<dim>2</dim>
				</port>
			</input>
			<output>
				<port id="2" precision="FP16">
					<dim>1</dim>
					<dim>64</dim>
					<dim>1</dim>
					<dim>5</dim>
				</port>
			</output>
		</layer>
		<layer id="280" name="StatefulPartitionedCall/functional_1/tcn_1/residual_block_0/conv1D_1/conv1d/Transpose/Cast_120313_const" type="Const" version="opset1">
			<data element_type="i64" offset="4136" shape="4" size="32"/>
			<output>
				<port id="1" precision="I64">
					<dim>4</dim>
				</port>
			</output>
		</layer>
		<layer id="281" name="StatefulPartitionedCall/functional_1/tcn_1/residual_block_0/conv1D_1/conv1d/Transpose" type="Transpose" version="opset1">
			<input>
				<port id="0">
					<dim>1</dim>
					<dim>64</dim>
					<dim>1</dim>
					<dim>5</dim>
				</port>
				<port id="1">
					<dim>4</dim>
				</port>
			</input>
			<output>
				<port id="2" precision="FP16">
					<dim>1</dim>
					<dim>1</dim>
					<dim>5</dim>
					<dim>64</dim>
				</port>
			</output>
		</layer>
		<layer id="282" name="StatefulPartitionedCall/functional_1/tcn_1/residual_block_0/conv1D_1/conv1d/Squeeze/Dims/Output_0/Data__const" type="Const" version="opset1">
			<data element_type="i64" offset="0" shape="1" size="8"/>
			<output>
				<port id="1" precision="I64">
					<dim>1</dim>
				</port>
			</output>
		</layer>
		<layer id="283" name="StatefulPartitionedCall/functional_1/tcn_1/residual_block_0/conv1D_1/conv1d/Squeeze" type="Squeeze" version="opset1">
			<input>
				<port id="0">
					<dim>1</dim>
					<dim>1</dim>
					<dim>5</dim>
					<dim>64</dim>
				</port>
				<port id="1">
					<dim>1</dim>
				</port>
			</input>
			<output>
				<port id="2" precision="FP16">
					<dim>1</dim>
					<dim>5</dim>
					<dim>64</dim>
				</port>
			</output>
		</layer>
		<layer id="284" name="StatefulPartitionedCall/functional_1/tcn_1/residual_block_0/conv1D_1/BiasAdd/ReadVariableOp/Output_0/Data_/copy_const" type="Const" version="opset1">
			<data element_type="f16" offset="226976" shape="1,1,64" size="128"/>
			<output>
				<port id="1" precision="FP16">
					<dim>1</dim>
					<dim>1</dim>
					<dim>64</dim>
				</port>
			</output>
		</layer>
		<layer id="285" name="StatefulPartitionedCall/functional_1/tcn_1/residual_block_0/conv1D_1/BiasAdd/Add" type="Add" version="opset1">
			<input>
				<port id="0">
					<dim>1</dim>
					<dim>5</dim>
					<dim>64</dim>
				</port>
				<port id="1">
					<dim>1</dim>
					<dim>1</dim>
					<dim>64</dim>
				</port>
			</input>
			<output>
				<port id="2" precision="FP16">
					<dim>1</dim>
					<dim>5</dim>
					<dim>64</dim>
				</port>
			</output>
		</layer>
		<layer id="286" name="StatefulPartitionedCall/functional_1/tcn_1/residual_block_0/activation_19/Relu" type="ReLU" version="opset1">
			<input>
				<port id="0">
					<dim>1</dim>
					<dim>5</dim>
					<dim>64</dim>
				</port>
			</input>
			<output>
				<port id="1" precision="FP16">
					<dim>1</dim>
					<dim>5</dim>
					<dim>64</dim>
				</port>
			</output>
		</layer>
		<layer id="287" name="StatefulPartitionedCall/functional_1/tcn_1/residual_block_0/add_6/add" type="Add" version="opset1">
			<input>
				<port id="0">
					<dim>1</dim>
					<dim>5</dim>
					<dim>64</dim>
				</port>
				<port id="1">
					<dim>1</dim>
					<dim>5</dim>
					<dim>64</dim>
				</port>
			</input>
			<output>
				<port id="2" precision="FP16">
					<dim>1</dim>
					<dim>5</dim>
					<dim>64</dim>
				</port>
			</output>
		</layer>
		<layer id="288" name="StatefulPartitionedCall/functional_1/tcn_1/residual_block_0/activation_20/Relu" type="ReLU" version="opset1">
			<input>
				<port id="0">
					<dim>1</dim>
					<dim>5</dim>
					<dim>64</dim>
				</port>
			</input>
			<output>
				<port id="1" precision="FP16">
					<dim>1</dim>
					<dim>5</dim>
					<dim>64</dim>
				</port>
			</output>
		</layer>
		<layer id="289" name="StatefulPartitionedCall/functional_1/tcn_1/residual_block_1/conv1D_0/conv1d/SpaceToBatchND/aligned_block_shape/Output_0/Data__const" type="Const" version="opset1">
			<data element_type="i32" offset="29128" shape="3" size="12"/>
			<output>
				<port id="1" precision="I32">
					<dim>3</dim>
				</port>
			</output>
		</layer>
		<layer id="290" name="StatefulPartitionedCall/functional_1/tcn_1/residual_block_1/conv1D_0/conv1d/SpaceToBatchND/aligned_pads_begin/Output_0/Data__const" type="Const" version="opset1">
			<data element_type="i32" offset="29140" shape="3" size="12"/>
			<output>
				<port id="1" precision="I32">
					<dim>3</dim>
				</port>
			</output>
		</layer>
		<layer id="291" name="StatefulPartitionedCall/functional_1/tcn_1/residual_block_1/conv1D_0/conv1d/SpaceToBatchND/aligned_pads_end/Output_0/Data__const" type="Const" version="opset1">
			<data element_type="i32" offset="29152" shape="3" size="12"/>
			<output>
				<port id="1" precision="I32">
					<dim>3</dim>
				</port>
			</output>
		</layer>
		<layer id="292" name="StatefulPartitionedCall/functional_1/tcn_1/residual_block_1/conv1D_0/conv1d/SpaceToBatchND" type="SpaceToBatch" version="opset2">
			<input>
				<port id="0">
					<dim>1</dim>
					<dim>5</dim>
					<dim>64</dim>
				</port>
				<port id="1">
					<dim>3</dim>
				</port>
				<port id="2">
					<dim>3</dim>
				</port>
				<port id="3">
					<dim>3</dim>
				</port>
			</input>
			<output>
				<port id="4" precision="FP16">
					<dim>2</dim>
					<dim>4</dim>
					<dim>64</dim>
				</port>
			</output>
		</layer>
		<layer id="293" name="StatefulPartitionedCall/functional_1/tcn_1/residual_block_1/conv1D_0/conv1d/ExpandDims/dim/Output_0/Data__const" type="Const" version="opset1">
			<data element_type="i64" offset="0" shape="1" size="8"/>
			<output>
				<port id="1" precision="I64">
					<dim>1</dim>
				</port>
			</output>
		</layer>
		<layer id="294" name="StatefulPartitionedCall/functional_1/tcn_1/residual_block_1/conv1D_0/conv1d/ExpandDims" type="Unsqueeze" version="opset1">
			<input>
				<port id="0">
					<dim>2</dim>
					<dim>4</dim>
					<dim>64</dim>
				</port>
				<port id="1">
					<dim>1</dim>
				</port>
			</input>
			<output>
				<port id="2" precision="FP16">
					<dim>2</dim>
					<dim>1</dim>
					<dim>4</dim>
					<dim>64</dim>
				</port>
			</output>
		</layer>
		<layer id="295" name="StatefulPartitionedCall/functional_1/tcn_1/residual_block_1/conv1D_0/conv1d/ExpandDims/Transpose/Cast_120301_const" type="Const" version="opset1">
			<data element_type="i64" offset="8" shape="4" size="32"/>
			<output>
				<port id="1" precision="I64">
					<dim>4</dim>
				</port>
			</output>
		</layer>
		<layer id="296" name="StatefulPartitionedCall/functional_1/tcn_1/residual_block_1/conv1D_0/conv1d/ExpandDims/Transpose" type="Transpose" version="opset1">
			<input>
				<port id="0">
					<dim>2</dim>
					<dim>1</dim>
					<dim>4</dim>
					<dim>64</dim>
				</port>
				<port id="1">
					<dim>4</dim>
				</port>
			</input>
			<output>
				<port id="2" precision="FP16">
					<dim>2</dim>
					<dim>64</dim>
					<dim>1</dim>
					<dim>4</dim>
				</port>
			</output>
		</layer>
		<layer id="297" name="StatefulPartitionedCall/functional_1/tcn_1/residual_block_1/conv1D_0/conv1d/ExpandDims_1/Output_0/Data__const" type="Const" version="opset1">
			<data element_type="f16" offset="227104" shape="64,64,1,2" size="16384"/>
			<output>
				<port id="1" precision="FP16">
					<dim>64</dim>
					<dim>64</dim>
					<dim>1</dim>
					<dim>2</dim>
				</port>
			</output>
		</layer>
		<layer id="298" name="StatefulPartitionedCall/functional_1/tcn_1/residual_block_1/conv1D_0/conv1d" type="Convolution" version="opset1">
			<data auto_pad="valid" dilations="1,1" output_padding="0,0" pads_begin="0,0" pads_end="0,0" strides="1,1"/>
			<input>
				<port id="0">
					<dim>2</dim>
					<dim>64</dim>
					<dim>1</dim>
					<dim>4</dim>
				</port>
				<port id="1">
					<dim>64</dim>
					<dim>64</dim>
					<dim>1</dim>
					<dim>2</dim>
				</port>
			</input>
			<output>
				<port id="2" precision="FP16">
					<dim>2</dim>
					<dim>64</dim>
					<dim>1</dim>
					<dim>3</dim>
				</port>
			</output>
		</layer>
		<layer id="299" name="StatefulPartitionedCall/functional_1/tcn_1/residual_block_1/conv1D_0/conv1d/Transpose/Cast_120263_const" type="Const" version="opset1">
			<data element_type="i64" offset="4136" shape="4" size="32"/>
			<output>
				<port id="1" precision="I64">
					<dim>4</dim>
				</port>
			</output>
		</layer>
		<layer id="300" name="StatefulPartitionedCall/functional_1/tcn_1/residual_block_1/conv1D_0/conv1d/Transpose" type="Transpose" version="opset1">
			<input>
				<port id="0">
					<dim>2</dim>
					<dim>64</dim>
					<dim>1</dim>
					<dim>3</dim>
				</port>
				<port id="1">
					<dim>4</dim>
				</port>
			</input>
			<output>
				<port id="2" precision="FP16">
					<dim>2</dim>
					<dim>1</dim>
					<dim>3</dim>
					<dim>64</dim>
				</port>
			</output>
		</layer>
		<layer id="301" name="StatefulPartitionedCall/functional_1/tcn_1/residual_block_1/conv1D_0/conv1d/Squeeze/Dims/Output_0/Data__const" type="Const" version="opset1">
			<data element_type="i64" offset="0" shape="1" size="8"/>
			<output>
				<port id="1" precision="I64">
					<dim>1</dim>
				</port>
			</output>
		</layer>
		<layer id="302" name="StatefulPartitionedCall/functional_1/tcn_1/residual_block_1/conv1D_0/conv1d/Squeeze" type="Squeeze" version="opset1">
			<input>
				<port id="0">
					<dim>2</dim>
					<dim>1</dim>
					<dim>3</dim>
					<dim>64</dim>
				</port>
				<port id="1">
					<dim>1</dim>
				</port>
			</input>
			<output>
				<port id="2" precision="FP16">
					<dim>2</dim>
					<dim>3</dim>
					<dim>64</dim>
				</port>
			</output>
		</layer>
		<layer id="303" name="StatefulPartitionedCall/functional_1/tcn_1/residual_block_1/conv1D_0/conv1d/BatchToSpaceND/aligned_block_shape/Output_0/Data__const" type="Const" version="opset1">
			<data element_type="i32" offset="29128" shape="3" size="12"/>
			<output>
				<port id="1" precision="I32">
					<dim>3</dim>
				</port>
			</output>
		</layer>
		<layer id="304" name="StatefulPartitionedCall/functional_1/tcn_1/residual_block_1/conv1D_0/conv1d/BatchToSpaceND/aligned_crops_begin/Output_0/Data__const" type="Const" version="opset1">
			<data element_type="i32" offset="45548" shape="3" size="12"/>
			<output>
				<port id="1" precision="I32">
					<dim>3</dim>
				</port>
			</output>
		</layer>
		<layer id="305" name="StatefulPartitionedCall/functional_1/tcn_1/residual_block_1/conv1D_0/conv1d/BatchToSpaceND/aligned_crops_end/Output_0/Data__const" type="Const" version="opset1">
			<data element_type="i32" offset="29140" shape="3" size="12"/>
			<output>
				<port id="1" precision="I32">
					<dim>3</dim>
				</port>
			</output>
		</layer>
		<layer id="306" name="StatefulPartitionedCall/functional_1/tcn_1/residual_block_1/conv1D_0/conv1d/BatchToSpaceND" type="BatchToSpace" version="opset2">
			<input>
				<port id="0">
					<dim>2</dim>
					<dim>3</dim>
					<dim>64</dim>
				</port>
				<port id="1">
					<dim>3</dim>
				</port>
				<port id="2">
					<dim>3</dim>
				</port>
				<port id="3">
					<dim>3</dim>
				</port>
			</input>
			<output>
				<port id="4" precision="FP16">
					<dim>1</dim>
					<dim>5</dim>
					<dim>64</dim>
				</port>
			</output>
		</layer>
		<layer id="307" name="StatefulPartitionedCall/functional_1/tcn_1/residual_block_1/conv1D_0/BiasAdd/ReadVariableOp/Output_0/Data_/copy_const" type="Const" version="opset1">
			<data element_type="f16" offset="243488" shape="1,1,64" size="128"/>
			<output>
				<port id="1" precision="FP16">
					<dim>1</dim>
					<dim>1</dim>
					<dim>64</dim>
				</port>
			</output>
		</layer>
		<layer id="308" name="StatefulPartitionedCall/functional_1/tcn_1/residual_block_1/conv1D_0/BiasAdd/Add" type="Add" version="opset1">
			<input>
				<port id="0">
					<dim>1</dim>
					<dim>5</dim>
					<dim>64</dim>
				</port>
				<port id="1">
					<dim>1</dim>
					<dim>1</dim>
					<dim>64</dim>
				</port>
			</input>
			<output>
				<port id="2" precision="FP16">
					<dim>1</dim>
					<dim>5</dim>
					<dim>64</dim>
				</port>
			</output>
		</layer>
		<layer id="309" name="StatefulPartitionedCall/functional_1/tcn_1/residual_block_1/activation_21/Relu" type="ReLU" version="opset1">
			<input>
				<port id="0">
					<dim>1</dim>
					<dim>5</dim>
					<dim>64</dim>
				</port>
			</input>
			<output>
				<port id="1" precision="FP16">
					<dim>1</dim>
					<dim>5</dim>
					<dim>64</dim>
				</port>
			</output>
		</layer>
		<layer id="310" name="StatefulPartitionedCall/functional_1/tcn_1/residual_block_1/conv1D_1/conv1d/SpaceToBatchND/aligned_block_shape/Output_0/Data__const" type="Const" version="opset1">
			<data element_type="i32" offset="29128" shape="3" size="12"/>
			<output>
				<port id="1" precision="I32">
					<dim>3</dim>
				</port>
			</output>
		</layer>
		<layer id="311" name="StatefulPartitionedCall/functional_1/tcn_1/residual_block_1/conv1D_1/conv1d/SpaceToBatchND/aligned_pads_begin/Output_0/Data__const" type="Const" version="opset1">
			<data element_type="i32" offset="29140" shape="3" size="12"/>
			<output>
				<port id="1" precision="I32">
					<dim>3</dim>
				</port>
			</output>
		</layer>
		<layer id="312" name="StatefulPartitionedCall/functional_1/tcn_1/residual_block_1/conv1D_1/conv1d/SpaceToBatchND/aligned_pads_end/Output_0/Data__const" type="Const" version="opset1">
			<data element_type="i32" offset="29152" shape="3" size="12"/>
			<output>
				<port id="1" precision="I32">
					<dim>3</dim>
				</port>
			</output>
		</layer>
		<layer id="313" name="StatefulPartitionedCall/functional_1/tcn_1/residual_block_1/conv1D_1/conv1d/SpaceToBatchND" type="SpaceToBatch" version="opset2">
			<input>
				<port id="0">
					<dim>1</dim>
					<dim>5</dim>
					<dim>64</dim>
				</port>
				<port id="1">
					<dim>3</dim>
				</port>
				<port id="2">
					<dim>3</dim>
				</port>
				<port id="3">
					<dim>3</dim>
				</port>
			</input>
			<output>
				<port id="4" precision="FP16">
					<dim>2</dim>
					<dim>4</dim>
					<dim>64</dim>
				</port>
			</output>
		</layer>
		<layer id="314" name="StatefulPartitionedCall/functional_1/tcn_1/residual_block_1/conv1D_1/conv1d/ExpandDims/dim/Output_0/Data__const" type="Const" version="opset1">
			<data element_type="i64" offset="0" shape="1" size="8"/>
			<output>
				<port id="1" precision="I64">
					<dim>1</dim>
				</port>
			</output>
		</layer>
		<layer id="315" name="StatefulPartitionedCall/functional_1/tcn_1/residual_block_1/conv1D_1/conv1d/ExpandDims" type="Unsqueeze" version="opset1">
			<input>
				<port id="0">
					<dim>2</dim>
					<dim>4</dim>
					<dim>64</dim>
				</port>
				<port id="1">
					<dim>1</dim>
				</port>
			</input>
			<output>
				<port id="2" precision="FP16">
					<dim>2</dim>
					<dim>1</dim>
					<dim>4</dim>
					<dim>64</dim>
				</port>
			</output>
		</layer>
		<layer id="316" name="StatefulPartitionedCall/functional_1/tcn_1/residual_block_1/conv1D_1/conv1d/ExpandDims/Transpose/Cast_120317_const" type="Const" version="opset1">
			<data element_type="i64" offset="8" shape="4" size="32"/>
			<output>
				<port id="1" precision="I64">
					<dim>4</dim>
				</port>
			</output>
		</layer>
		<layer id="317" name="StatefulPartitionedCall/functional_1/tcn_1/residual_block_1/conv1D_1/conv1d/ExpandDims/Transpose" type="Transpose" version="opset1">
			<input>
				<port id="0">
					<dim>2</dim>
					<dim>1</dim>
					<dim>4</dim>
					<dim>64</dim>
				</port>
				<port id="1">
					<dim>4</dim>
				</port>
			</input>
			<output>
				<port id="2" precision="FP16">
					<dim>2</dim>
					<dim>64</dim>
					<dim>1</dim>
					<dim>4</dim>
				</port>
			</output>
		</layer>
		<layer id="318" name="StatefulPartitionedCall/functional_1/tcn_1/residual_block_1/conv1D_1/conv1d/ExpandDims_1/Output_0/Data__const" type="Const" version="opset1">
			<data element_type="f16" offset="243616" shape="64,64,1,2" size="16384"/>
			<output>
				<port id="1" precision="FP16">
					<dim>64</dim>
					<dim>64</dim>
					<dim>1</dim>
					<dim>2</dim>
				</port>
			</output>
		</layer>
		<layer id="319" name="StatefulPartitionedCall/functional_1/tcn_1/residual_block_1/conv1D_1/conv1d" type="Convolution" version="opset1">
			<data auto_pad="valid" dilations="1,1" output_padding="0,0" pads_begin="0,0" pads_end="0,0" strides="1,1"/>
			<input>
				<port id="0">
					<dim>2</dim>
					<dim>64</dim>
					<dim>1</dim>
					<dim>4</dim>
				</port>
				<port id="1">
					<dim>64</dim>
					<dim>64</dim>
					<dim>1</dim>
					<dim>2</dim>
				</port>
			</input>
			<output>
				<port id="2" precision="FP16">
					<dim>2</dim>
					<dim>64</dim>
					<dim>1</dim>
					<dim>3</dim>
				</port>
			</output>
		</layer>
		<layer id="320" name="StatefulPartitionedCall/functional_1/tcn_1/residual_block_1/conv1D_1/conv1d/Transpose/Cast_120251_const" type="Const" version="opset1">
			<data element_type="i64" offset="4136" shape="4" size="32"/>
			<output>
				<port id="1" precision="I64">
					<dim>4</dim>
				</port>
			</output>
		</layer>
		<layer id="321" name="StatefulPartitionedCall/functional_1/tcn_1/residual_block_1/conv1D_1/conv1d/Transpose" type="Transpose" version="opset1">
			<input>
				<port id="0">
					<dim>2</dim>
					<dim>64</dim>
					<dim>1</dim>
					<dim>3</dim>
				</port>
				<port id="1">
					<dim>4</dim>
				</port>
			</input>
			<output>
				<port id="2" precision="FP16">
					<dim>2</dim>
					<dim>1</dim>
					<dim>3</dim>
					<dim>64</dim>
				</port>
			</output>
		</layer>
		<layer id="322" name="StatefulPartitionedCall/functional_1/tcn_1/residual_block_1/conv1D_1/conv1d/Squeeze/Dims/Output_0/Data__const" type="Const" version="opset1">
			<data element_type="i64" offset="0" shape="1" size="8"/>
			<output>
				<port id="1" precision="I64">
					<dim>1</dim>
				</port>
			</output>
		</layer>
		<layer id="323" name="StatefulPartitionedCall/functional_1/tcn_1/residual_block_1/conv1D_1/conv1d/Squeeze" type="Squeeze" version="opset1">
			<input>
				<port id="0">
					<dim>2</dim>
					<dim>1</dim>
					<dim>3</dim>
					<dim>64</dim>
				</port>
				<port id="1">
					<dim>1</dim>
				</port>
			</input>
			<output>
				<port id="2" precision="FP16">
					<dim>2</dim>
					<dim>3</dim>
					<dim>64</dim>
				</port>
			</output>
		</layer>
		<layer id="324" name="StatefulPartitionedCall/functional_1/tcn_1/residual_block_1/conv1D_1/conv1d/BatchToSpaceND/aligned_block_shape/Output_0/Data__const" type="Const" version="opset1">
			<data element_type="i32" offset="29128" shape="3" size="12"/>
			<output>
				<port id="1" precision="I32">
					<dim>3</dim>
				</port>
			</output>
		</layer>
		<layer id="325" name="StatefulPartitionedCall/functional_1/tcn_1/residual_block_1/conv1D_1/conv1d/BatchToSpaceND/aligned_crops_begin/Output_0/Data__const" type="Const" version="opset1">
			<data element_type="i32" offset="45548" shape="3" size="12"/>
			<output>
				<port id="1" precision="I32">
					<dim>3</dim>
				</port>
			</output>
		</layer>
		<layer id="326" name="StatefulPartitionedCall/functional_1/tcn_1/residual_block_1/conv1D_1/conv1d/BatchToSpaceND/aligned_crops_end/Output_0/Data__const" type="Const" version="opset1">
			<data element_type="i32" offset="29140" shape="3" size="12"/>
			<output>
				<port id="1" precision="I32">
					<dim>3</dim>
				</port>
			</output>
		</layer>
		<layer id="327" name="StatefulPartitionedCall/functional_1/tcn_1/residual_block_1/conv1D_1/conv1d/BatchToSpaceND" type="BatchToSpace" version="opset2">
			<input>
				<port id="0">
					<dim>2</dim>
					<dim>3</dim>
					<dim>64</dim>
				</port>
				<port id="1">
					<dim>3</dim>
				</port>
				<port id="2">
					<dim>3</dim>
				</port>
				<port id="3">
					<dim>3</dim>
				</port>
			</input>
			<output>
				<port id="4" precision="FP16">
					<dim>1</dim>
					<dim>5</dim>
					<dim>64</dim>
				</port>
			</output>
		</layer>
		<layer id="328" name="StatefulPartitionedCall/functional_1/tcn_1/residual_block_1/conv1D_1/BiasAdd/ReadVariableOp/Output_0/Data_/copy_const" type="Const" version="opset1">
			<data element_type="f16" offset="260000" shape="1,1,64" size="128"/>
			<output>
				<port id="1" precision="FP16">
					<dim>1</dim>
					<dim>1</dim>
					<dim>64</dim>
				</port>
			</output>
		</layer>
		<layer id="329" name="StatefulPartitionedCall/functional_1/tcn_1/residual_block_1/conv1D_1/BiasAdd/Add" type="Add" version="opset1">
			<input>
				<port id="0">
					<dim>1</dim>
					<dim>5</dim>
					<dim>64</dim>
				</port>
				<port id="1">
					<dim>1</dim>
					<dim>1</dim>
					<dim>64</dim>
				</port>
			</input>
			<output>
				<port id="2" precision="FP16">
					<dim>1</dim>
					<dim>5</dim>
					<dim>64</dim>
				</port>
			</output>
		</layer>
		<layer id="330" name="StatefulPartitionedCall/functional_1/tcn_1/residual_block_1/activation_22/Relu" type="ReLU" version="opset1">
			<input>
				<port id="0">
					<dim>1</dim>
					<dim>5</dim>
					<dim>64</dim>
				</port>
			</input>
			<output>
				<port id="1" precision="FP16">
					<dim>1</dim>
					<dim>5</dim>
					<dim>64</dim>
				</port>
			</output>
		</layer>
		<layer id="331" name="StatefulPartitionedCall/functional_1/tcn_1/residual_block_1/add_7/add" type="Add" version="opset1">
			<input>
				<port id="0">
					<dim>1</dim>
					<dim>5</dim>
					<dim>64</dim>
				</port>
				<port id="1">
					<dim>1</dim>
					<dim>5</dim>
					<dim>64</dim>
				</port>
			</input>
			<output>
				<port id="2" precision="FP16">
					<dim>1</dim>
					<dim>5</dim>
					<dim>64</dim>
				</port>
			</output>
		</layer>
		<layer id="332" name="StatefulPartitionedCall/functional_1/tcn_1/residual_block_1/activation_23/Relu" type="ReLU" version="opset1">
			<input>
				<port id="0">
					<dim>1</dim>
					<dim>5</dim>
					<dim>64</dim>
				</port>
			</input>
			<output>
				<port id="1" precision="FP16">
					<dim>1</dim>
					<dim>5</dim>
					<dim>64</dim>
				</port>
			</output>
		</layer>
		<layer id="333" name="StatefulPartitionedCall/functional_1/tcn_1/residual_block_2/conv1D_0/conv1d/SpaceToBatchND/aligned_block_shape/Output_0/Data__const" type="Const" version="opset1">
			<data element_type="i32" offset="62200" shape="3" size="12"/>
			<output>
				<port id="1" precision="I32">
					<dim>3</dim>
				</port>
			</output>
		</layer>
		<layer id="334" name="StatefulPartitionedCall/functional_1/tcn_1/residual_block_2/conv1D_0/conv1d/SpaceToBatchND/aligned_pads_begin/Output_0/Data__const" type="Const" version="opset1">
			<data element_type="i32" offset="29152" shape="3" size="12"/>
			<output>
				<port id="1" precision="I32">
					<dim>3</dim>
				</port>
			</output>
		</layer>
		<layer id="335" name="StatefulPartitionedCall/functional_1/tcn_1/residual_block_2/conv1D_0/conv1d/SpaceToBatchND/aligned_pads_end/Output_0/Data__const" type="Const" version="opset1">
			<data element_type="i32" offset="62212" shape="3" size="12"/>
			<output>
				<port id="1" precision="I32">
					<dim>3</dim>
				</port>
			</output>
		</layer>
		<layer id="336" name="StatefulPartitionedCall/functional_1/tcn_1/residual_block_2/conv1D_0/conv1d/SpaceToBatchND" type="SpaceToBatch" version="opset2">
			<input>
				<port id="0">
					<dim>1</dim>
					<dim>5</dim>
					<dim>64</dim>
				</port>
				<port id="1">
					<dim>3</dim>
				</port>
				<port id="2">
					<dim>3</dim>
				</port>
				<port id="3">
					<dim>3</dim>
				</port>
			</input>
			<output>
				<port id="4" precision="FP16">
					<dim>4</dim>
					<dim>3</dim>
					<dim>64</dim>
				</port>
			</output>
		</layer>
		<layer id="337" name="StatefulPartitionedCall/functional_1/tcn_1/residual_block_2/conv1D_0/conv1d/ExpandDims/dim/Output_0/Data__const" type="Const" version="opset1">
			<data element_type="i64" offset="0" shape="1" size="8"/>
			<output>
				<port id="1" precision="I64">
					<dim>1</dim>
				</port>
			</output>
		</layer>
		<layer id="338" name="StatefulPartitionedCall/functional_1/tcn_1/residual_block_2/conv1D_0/conv1d/ExpandDims" type="Unsqueeze" version="opset1">
			<input>
				<port id="0">
					<dim>4</dim>
					<dim>3</dim>
					<dim>64</dim>
				</port>
				<port id="1">
					<dim>1</dim>
				</port>
			</input>
			<output>
				<port id="2" precision="FP16">
					<dim>4</dim>
					<dim>1</dim>
					<dim>3</dim>
					<dim>64</dim>
				</port>
			</output>
		</layer>
		<layer id="339" name="StatefulPartitionedCall/functional_1/tcn_1/residual_block_2/conv1D_0/conv1d/ExpandDims/Transpose/Cast_120315_const" type="Const" version="opset1">
			<data element_type="i64" offset="8" shape="4" size="32"/>
			<output>
				<port id="1" precision="I64">
					<dim>4</dim>
				</port>
			</output>
		</layer>
		<layer id="340" name="StatefulPartitionedCall/functional_1/tcn_1/residual_block_2/conv1D_0/conv1d/ExpandDims/Transpose" type="Transpose" version="opset1">
			<input>
				<port id="0">
					<dim>4</dim>
					<dim>1</dim>
					<dim>3</dim>
					<dim>64</dim>
				</port>
				<port id="1">
					<dim>4</dim>
				</port>
			</input>
			<output>
				<port id="2" precision="FP16">
					<dim>4</dim>
					<dim>64</dim>
					<dim>1</dim>
					<dim>3</dim>
				</port>
			</output>
		</layer>
		<layer id="341" name="StatefulPartitionedCall/functional_1/tcn_1/residual_block_2/conv1D_0/conv1d/ExpandDims_1/Output_0/Data__const" type="Const" version="opset1">
			<data element_type="f16" offset="260128" shape="64,64,1,2" size="16384"/>
			<output>
				<port id="1" precision="FP16">
					<dim>64</dim>
					<dim>64</dim>
					<dim>1</dim>
					<dim>2</dim>
				</port>
			</output>
		</layer>
		<layer id="342" name="StatefulPartitionedCall/functional_1/tcn_1/residual_block_2/conv1D_0/conv1d" type="Convolution" version="opset1">
			<data auto_pad="valid" dilations="1,1" output_padding="0,0" pads_begin="0,0" pads_end="0,0" strides="1,1"/>
			<input>
				<port id="0">
					<dim>4</dim>
					<dim>64</dim>
					<dim>1</dim>
					<dim>3</dim>
				</port>
				<port id="1">
					<dim>64</dim>
					<dim>64</dim>
					<dim>1</dim>
					<dim>2</dim>
				</port>
			</input>
			<output>
				<port id="2" precision="FP16">
					<dim>4</dim>
					<dim>64</dim>
					<dim>1</dim>
					<dim>2</dim>
				</port>
			</output>
		</layer>
		<layer id="343" name="StatefulPartitionedCall/functional_1/tcn_1/residual_block_2/conv1D_0/conv1d/Transpose/Cast_120299_const" type="Const" version="opset1">
			<data element_type="i64" offset="4136" shape="4" size="32"/>
			<output>
				<port id="1" precision="I64">
					<dim>4</dim>
				</port>
			</output>
		</layer>
		<layer id="344" name="StatefulPartitionedCall/functional_1/tcn_1/residual_block_2/conv1D_0/conv1d/Transpose" type="Transpose" version="opset1">
			<input>
				<port id="0">
					<dim>4</dim>
					<dim>64</dim>
					<dim>1</dim>
					<dim>2</dim>
				</port>
				<port id="1">
					<dim>4</dim>
				</port>
			</input>
			<output>
				<port id="2" precision="FP16">
					<dim>4</dim>
					<dim>1</dim>
					<dim>2</dim>
					<dim>64</dim>
				</port>
			</output>
		</layer>
		<layer id="345" name="StatefulPartitionedCall/functional_1/tcn_1/residual_block_2/conv1D_0/conv1d/Squeeze/Dims/Output_0/Data__const" type="Const" version="opset1">
			<data element_type="i64" offset="0" shape="1" size="8"/>
			<output>
				<port id="1" precision="I64">
					<dim>1</dim>
				</port>
			</output>
		</layer>
		<layer id="346" name="StatefulPartitionedCall/functional_1/tcn_1/residual_block_2/conv1D_0/conv1d/Squeeze" type="Squeeze" version="opset1">
			<input>
				<port id="0">
					<dim>4</dim>
					<dim>1</dim>
					<dim>2</dim>
					<dim>64</dim>
				</port>
				<port id="1">
					<dim>1</dim>
				</port>
			</input>
			<output>
				<port id="2" precision="FP16">
					<dim>4</dim>
					<dim>2</dim>
					<dim>64</dim>
				</port>
			</output>
		</layer>
		<layer id="347" name="StatefulPartitionedCall/functional_1/tcn_1/residual_block_2/conv1D_0/conv1d/BatchToSpaceND/aligned_block_shape/Output_0/Data__const" type="Const" version="opset1">
			<data element_type="i32" offset="62200" shape="3" size="12"/>
			<output>
				<port id="1" precision="I32">
					<dim>3</dim>
				</port>
			</output>
		</layer>
		<layer id="348" name="StatefulPartitionedCall/functional_1/tcn_1/residual_block_2/conv1D_0/conv1d/BatchToSpaceND/aligned_crops_begin/Output_0/Data__const" type="Const" version="opset1">
			<data element_type="i32" offset="45548" shape="3" size="12"/>
			<output>
				<port id="1" precision="I32">
					<dim>3</dim>
				</port>
			</output>
		</layer>
		<layer id="349" name="StatefulPartitionedCall/functional_1/tcn_1/residual_block_2/conv1D_0/conv1d/BatchToSpaceND/aligned_crops_end/Output_0/Data__const" type="Const" version="opset1">
			<data element_type="i32" offset="78608" shape="3" size="12"/>
			<output>
				<port id="1" precision="I32">
					<dim>3</dim>
				</port>
			</output>
		</layer>
		<layer id="350" name="StatefulPartitionedCall/functional_1/tcn_1/residual_block_2/conv1D_0/conv1d/BatchToSpaceND" type="BatchToSpace" version="opset2">
			<input>
				<port id="0">
					<dim>4</dim>
					<dim>2</dim>
					<dim>64</dim>
				</port>
				<port id="1">
					<dim>3</dim>
				</port>
				<port id="2">
					<dim>3</dim>
				</port>
				<port id="3">
					<dim>3</dim>
				</port>
			</input>
			<output>
				<port id="4" precision="FP16">
					<dim>1</dim>
					<dim>5</dim>
					<dim>64</dim>
				</port>
			</output>
		</layer>
		<layer id="351" name="StatefulPartitionedCall/functional_1/tcn_1/residual_block_2/conv1D_0/BiasAdd/ReadVariableOp/Output_0/Data_/copy_const" type="Const" version="opset1">
			<data element_type="f16" offset="276512" shape="1,1,64" size="128"/>
			<output>
				<port id="1" precision="FP16">
					<dim>1</dim>
					<dim>1</dim>
					<dim>64</dim>
				</port>
			</output>
		</layer>
		<layer id="352" name="StatefulPartitionedCall/functional_1/tcn_1/residual_block_2/conv1D_0/BiasAdd/Add" type="Add" version="opset1">
			<input>
				<port id="0">
					<dim>1</dim>
					<dim>5</dim>
					<dim>64</dim>
				</port>
				<port id="1">
					<dim>1</dim>
					<dim>1</dim>
					<dim>64</dim>
				</port>
			</input>
			<output>
				<port id="2" precision="FP16">
					<dim>1</dim>
					<dim>5</dim>
					<dim>64</dim>
				</port>
			</output>
		</layer>
		<layer id="353" name="StatefulPartitionedCall/functional_1/tcn_1/residual_block_2/activation_24/Relu" type="ReLU" version="opset1">
			<input>
				<port id="0">
					<dim>1</dim>
					<dim>5</dim>
					<dim>64</dim>
				</port>
			</input>
			<output>
				<port id="1" precision="FP16">
					<dim>1</dim>
					<dim>5</dim>
					<dim>64</dim>
				</port>
			</output>
		</layer>
		<layer id="354" name="StatefulPartitionedCall/functional_1/tcn_1/residual_block_2/conv1D_1/conv1d/SpaceToBatchND/aligned_block_shape/Output_0/Data__const" type="Const" version="opset1">
			<data element_type="i32" offset="62200" shape="3" size="12"/>
			<output>
				<port id="1" precision="I32">
					<dim>3</dim>
				</port>
			</output>
		</layer>
		<layer id="355" name="StatefulPartitionedCall/functional_1/tcn_1/residual_block_2/conv1D_1/conv1d/SpaceToBatchND/aligned_pads_begin/Output_0/Data__const" type="Const" version="opset1">
			<data element_type="i32" offset="29152" shape="3" size="12"/>
			<output>
				<port id="1" precision="I32">
					<dim>3</dim>
				</port>
			</output>
		</layer>
		<layer id="356" name="StatefulPartitionedCall/functional_1/tcn_1/residual_block_2/conv1D_1/conv1d/SpaceToBatchND/aligned_pads_end/Output_0/Data__const" type="Const" version="opset1">
			<data element_type="i32" offset="62212" shape="3" size="12"/>
			<output>
				<port id="1" precision="I32">
					<dim>3</dim>
				</port>
			</output>
		</layer>
		<layer id="357" name="StatefulPartitionedCall/functional_1/tcn_1/residual_block_2/conv1D_1/conv1d/SpaceToBatchND" type="SpaceToBatch" version="opset2">
			<input>
				<port id="0">
					<dim>1</dim>
					<dim>5</dim>
					<dim>64</dim>
				</port>
				<port id="1">
					<dim>3</dim>
				</port>
				<port id="2">
					<dim>3</dim>
				</port>
				<port id="3">
					<dim>3</dim>
				</port>
			</input>
			<output>
				<port id="4" precision="FP16">
					<dim>4</dim>
					<dim>3</dim>
					<dim>64</dim>
				</port>
			</output>
		</layer>
		<layer id="358" name="StatefulPartitionedCall/functional_1/tcn_1/residual_block_2/conv1D_1/conv1d/ExpandDims/dim/Output_0/Data__const" type="Const" version="opset1">
			<data element_type="i64" offset="0" shape="1" size="8"/>
			<output>
				<port id="1" precision="I64">
					<dim>1</dim>
				</port>
			</output>
		</layer>
		<layer id="359" name="StatefulPartitionedCall/functional_1/tcn_1/residual_block_2/conv1D_1/conv1d/ExpandDims" type="Unsqueeze" version="opset1">
			<input>
				<port id="0">
					<dim>4</dim>
					<dim>3</dim>
					<dim>64</dim>
				</port>
				<port id="1">
					<dim>1</dim>
				</port>
			</input>
			<output>
				<port id="2" precision="FP16">
					<dim>4</dim>
					<dim>1</dim>
					<dim>3</dim>
					<dim>64</dim>
				</port>
			</output>
		</layer>
		<layer id="360" name="StatefulPartitionedCall/functional_1/tcn_1/residual_block_2/conv1D_1/conv1d/ExpandDims/Transpose/Cast_120305_const" type="Const" version="opset1">
			<data element_type="i64" offset="8" shape="4" size="32"/>
			<output>
				<port id="1" precision="I64">
					<dim>4</dim>
				</port>
			</output>
		</layer>
		<layer id="361" name="StatefulPartitionedCall/functional_1/tcn_1/residual_block_2/conv1D_1/conv1d/ExpandDims/Transpose" type="Transpose" version="opset1">
			<input>
				<port id="0">
					<dim>4</dim>
					<dim>1</dim>
					<dim>3</dim>
					<dim>64</dim>
				</port>
				<port id="1">
					<dim>4</dim>
				</port>
			</input>
			<output>
				<port id="2" precision="FP16">
					<dim>4</dim>
					<dim>64</dim>
					<dim>1</dim>
					<dim>3</dim>
				</port>
			</output>
		</layer>
		<layer id="362" name="StatefulPartitionedCall/functional_1/tcn_1/residual_block_2/conv1D_1/conv1d/ExpandDims_1/Output_0/Data__const" type="Const" version="opset1">
			<data element_type="f16" offset="276640" shape="64,64,1,2" size="16384"/>
			<output>
				<port id="1" precision="FP16">
					<dim>64</dim>
					<dim>64</dim>
					<dim>1</dim>
					<dim>2</dim>
				</port>
			</output>
		</layer>
		<layer id="363" name="StatefulPartitionedCall/functional_1/tcn_1/residual_block_2/conv1D_1/conv1d" type="Convolution" version="opset1">
			<data auto_pad="valid" dilations="1,1" output_padding="0,0" pads_begin="0,0" pads_end="0,0" strides="1,1"/>
			<input>
				<port id="0">
					<dim>4</dim>
					<dim>64</dim>
					<dim>1</dim>
					<dim>3</dim>
				</port>
				<port id="1">
					<dim>64</dim>
					<dim>64</dim>
					<dim>1</dim>
					<dim>2</dim>
				</port>
			</input>
			<output>
				<port id="2" precision="FP16">
					<dim>4</dim>
…
		<layer id="486" name="StatefulPartitionedCall/functional_1/tcn_1/residual_block_5/conv1D_1/conv1d/SpaceToBatchND/aligned_block_shape/Output_0/Data__const" type="Const" version="opset1">
			<data element_type="i32" offset="161264" shape="3" size="12"/>
			<output>
				<port id="1" precision="I32">
					<dim>3</dim>
				</port>
			</output>
		</layer>
		<layer id="487" name="StatefulPartitionedCall/functional_1/tcn_1/residual_block_5/conv1D_1/conv1d/SpaceToBatchND/aligned_pads_begin/Output_0/Data__const" type="Const" version="opset1">
			<data element_type="i32" offset="161276" shape="3" size="12"/>
			<output>
				<port id="1" precision="I32">
					<dim>3</dim>
				</port>
			</output>
		</layer>
		<layer id="488" name="StatefulPartitionedCall/functional_1/tcn_1/residual_block_5/conv1D_1/conv1d/SpaceToBatchND/aligned_pads_end/Output_0/Data__const" type="Const" version="opset1">
			<data element_type="i32" offset="161288" shape="3" size="12"/>
			<output>
				<port id="1" precision="I32">
					<dim>3</dim>
				</port>
			</output>
		</layer>
		<layer id="489" name="StatefulPartitionedCall/functional_1/tcn_1/residual_block_5/conv1D_1/conv1d/SpaceToBatchND" type="SpaceToBatch" version="opset2">
			<input>
				<port id="0">
					<dim>1</dim>
					<dim>5</dim>
					<dim>64</dim>
				</port>
				<port id="1">
					<dim>3</dim>
				</port>
				<port id="2">
					<dim>3</dim>
				</port>
				<port id="3">
					<dim>3</dim>
				</port>
			</input>
			<output>
				<port id="4" precision="FP16">
					<dim>32</dim>
					<dim>2</dim>
					<dim>64</dim>
				</port>
			</output>
		</layer>
		<layer id="490" name="StatefulPartitionedCall/functional_1/tcn_1/residual_block_5/conv1D_1/conv1d/ExpandDims/dim/Output_0/Data__const" type="Const" version="opset1">
			<data element_type="i64" offset="0" shape="1" size="8"/>
			<output>
				<port id="1" precision="I64">
					<dim>1</dim>
				</port>
			</output>
		</layer>
		<layer id="491" name="StatefulPartitionedCall/functional_1/tcn_1/residual_block_5/conv1D_1/conv1d/ExpandDims" type="Unsqueeze" version="opset1">
			<input>
				<port id="0">
					<dim>32</dim>
					<dim>2</dim>
					<dim>64</dim>
				</port>
				<port id="1">
					<dim>1</dim>
				</port>
			</input>
			<output>
				<port id="2" precision="FP16">
					<dim>32</dim>
					<dim>1</dim>
					<dim>2</dim>
					<dim>64</dim>
				</port>
			</output>
		</layer>
		<layer id="492" name="StatefulPartitionedCall/functional_1/tcn_1/residual_block_5/conv1D_1/conv1d/ExpandDims/Transpose/Cast_120269_const" type="Const" version="opset1">
			<data element_type="i64" offset="8" shape="4" size="32"/>
			<output>
				<port id="1" precision="I64">
					<dim>4</dim>
				</port>
			</output>
		</layer>
		<layer id="493" name="StatefulPartitionedCall/functional_1/tcn_1/residual_block_5/conv1D_1/conv1d/ExpandDims/Transpose" type="Transpose" version="opset1">
			<input>
				<port id="0">
					<dim>32</dim>
					<dim>1</dim>
					<dim>2</dim>
					<dim>64</dim>
				</port>
				<port id="1">
					<dim>4</dim>
				</port>
			</input>
			<output>
				<port id="2" precision="FP16">
					<dim>32</dim>
					<dim>64</dim>
					<dim>1</dim>
					<dim>2</dim>
				</port>
			</output>
		</layer>
		<layer id="494" name="StatefulPartitionedCall/functional_1/tcn_1/residual_block_5/conv1D_1/conv1d/ExpandDims_1/Output_0/Data__const" type="Const" version="opset1">
			<data element_type="f16" offset="375072" shape="64,64,1,2" size="16384"/>
			<output>
				<port id="1" precision="FP16">
					<dim>64</dim>
					<dim>64</dim>
					<dim>1</dim>
					<dim>2</dim>
				</port>
			</output>
		</layer>
		<layer id="495" name="StatefulPartitionedCall/functional_1/tcn_1/residual_block_5/conv1D_1/conv1d" type="Convolution" version="opset1">
			<data auto_pad="valid" dilations="1,1" output_padding="0,0" pads_begin="0,0" pads_end="0,0" strides="1,1"/>
			<input>
				<port id="0">
					<dim>32</dim>
					<dim>64</dim>
					<dim>1</dim>
					<dim>2</dim>
				</port>
				<port id="1">
					<dim>64</dim>
					<dim>64</dim>
					<dim>1</dim>
					<dim>2</dim>
				</port>
			</input>
			<output>
				<port id="2" precision="FP16">
					<dim>32</dim>
					<dim>64</dim>
					<dim>1</dim>
					<dim>1</dim>
				</port>
			</output>
		</layer>
		<layer id="496" name="StatefulPartitionedCall/functional_1/tcn_1/residual_block_5/conv1D_1/conv1d/Transpose/Cast_120281_const" type="Const" version="opset1">
			<data element_type="i64" offset="4136" shape="4" size="32"/>
			<output>
				<port id="1" precision="I64">
					<dim>4</dim>
				</port>
			</output>
		</layer>
		<layer id="497" name="StatefulPartitionedCall/functional_1/tcn_1/residual_block_5/conv1D_1/conv1d/Transpose" type="Transpose" version="opset1">
			<input>
				<port id="0">
					<dim>32</dim>
					<dim>64</dim>
					<dim>1</dim>
					<dim>1</dim>
				</port>
				<port id="1">
					<dim>4</dim>
				</port>
			</input>
			<output>
				<port id="2" precision="FP16">
					<dim>32</dim>
					<dim>1</dim>
					<dim>1</dim>
					<dim>64</dim>
				</port>
			</output>
		</layer>
		<layer id="498" name="StatefulPartitionedCall/functional_1/tcn_1/residual_block_5/conv1D_1/conv1d/Squeeze/Dims/Output_0/Data__const" type="Const" version="opset1">
			<data element_type="i64" offset="0" shape="1" size="8"/>
			<output>
				<port id="1" precision="I64">
					<dim>1</dim>
				</port>
			</output>
		</layer>
		<layer id="499" name="StatefulPartitionedCall/functional_1/tcn_1/residual_block_5/conv1D_1/conv1d/Squeeze" type="Squeeze" version="opset1">
			<input>
				<port id="0">
					<dim>32</dim>
					<dim>1</dim>
					<dim>1</dim>
					<dim>64</dim>
				</port>
				<port id="1">
					<dim>1</dim>
				</port>
			</input>
			<output>
				<port id="2" precision="FP16">
					<dim>32</dim>
					<dim>1</dim>
					<dim>64</dim>
				</port>
			</output>
		</layer>
		<layer id="500" name="StatefulPartitionedCall/functional_1/tcn_1/residual_block_5/conv1D_1/conv1d/BatchToSpaceND/aligned_block_shape/Output_0/Data__const" type="Const" version="opset1">
			<data element_type="i32" offset="161264" shape="3" size="12"/>
			<output>
				<port id="1" precision="I32">
					<dim>3</dim>
				</port>
			</output>
		</layer>
		<layer id="501" name="StatefulPartitionedCall/functional_1/tcn_1/residual_block_5/conv1D_1/conv1d/BatchToSpaceND/aligned_crops_begin/Output_0/Data__const" type="Const" version="opset1">
			<data element_type="i32" offset="45548" shape="3" size="12"/>
			<output>
				<port id="1" precision="I32">
					<dim>3</dim>
				</port>
			</output>
		</layer>
		<layer id="502" name="StatefulPartitionedCall/functional_1/tcn_1/residual_block_5/conv1D_1/conv1d/BatchToSpaceND/aligned_crops_end/Output_0/Data__const" type="Const" version="opset1">
			<data element_type="i32" offset="177684" shape="3" size="12"/>
			<output>
				<port id="1" precision="I32">
					<dim>3</dim>
				</port>
			</output>
		</layer>
		<layer id="503" name="StatefulPartitionedCall/functional_1/tcn_1/residual_block_5/conv1D_1/conv1d/BatchToSpaceND" type="BatchToSpace" version="opset2">
			<input>
				<port id="0">
					<dim>32</dim>
					<dim>1</dim>
					<dim>64</dim>
				</port>
				<port id="1">
					<dim>3</dim>
				</port>
				<port id="2">
					<dim>3</dim>
				</port>
				<port id="3">
					<dim>3</dim>
				</port>
			</input>
			<output>
				<port id="4" precision="FP16">
					<dim>1</dim>
					<dim>5</dim>
					<dim>64</dim>
				</port>
			</output>
		</layer>
		<layer id="504" name="StatefulPartitionedCall/functional_1/tcn_1/residual_block_5/conv1D_1/BiasAdd/ReadVariableOp/Output_0/Data_/copy_const" type="Const" version="opset1">
			<data element_type="f16" offset="144752" shape="1,1,64" size="128"/>
			<output>
				<port id="1" precision="FP16">
					<dim>1</dim>
					<dim>1</dim>
					<dim>64</dim>
				</port>
			</output>
		</layer>
		<layer id="505" name="StatefulPartitionedCall/functional_1/tcn_1/residual_block_5/conv1D_1/BiasAdd/Add" type="Add" version="opset1">
			<input>
				<port id="0">
					<dim>1</dim>
					<dim>5</dim>
					<dim>64</dim>
				</port>
				<port id="1">
					<dim>1</dim>
					<dim>1</dim>
					<dim>64</dim>
				</port>
			</input>
			<output>
				<port id="2" precision="FP16">
					<dim>1</dim>
					<dim>5</dim>
					<dim>64</dim>
				</port>
			</output>
		</layer>
		<layer id="506" name="StatefulPartitionedCall/functional_1/tcn_1/residual_block_5/activation_34/Relu" type="ReLU" version="opset1">
			<input>
				<port id="0">
					<dim>1</dim>
					<dim>5</dim>
					<dim>64</dim>
				</port>
			</input>
			<output>
				<port id="1" precision="FP16">
					<dim>1</dim>
					<dim>5</dim>
					<dim>64</dim>
				</port>
			</output>
		</layer>
		<layer id="507" name="StatefulPartitionedCall/functional_1/tcn_1/residual_block_5/add_11/add" type="Add" version="opset1">
			<input>
				<port id="0">
					<dim>1</dim>
					<dim>5</dim>
					<dim>64</dim>
				</port>
				<port id="1">
					<dim>1</dim>
					<dim>5</dim>
					<dim>64</dim>
				</port>
			</input>
			<output>
				<port id="2" precision="FP16">
					<dim>1</dim>
					<dim>5</dim>
					<dim>64</dim>
				</port>
			</output>
		</layer>
		<layer id="508" name="StatefulPartitionedCall/functional_1/tcn_1/residual_block_5/activation_35/Relu" type="ReLU" version="opset1">
			<input>
				<port id="0">
					<dim>1</dim>
					<dim>5</dim>
					<dim>64</dim>
				</port>
			</input>
			<output>
				<port id="1" precision="FP16">
					<dim>1</dim>
					<dim>5</dim>
					<dim>64</dim>
				</port>
			</output>
		</layer>
		<layer id="509" name="StatefulPartitionedCall/functional_1/tcn_1/lambda_1/strided_slice/Cast_120237_const" type="Const" version="opset1">
			<data element_type="i64" offset="391456" shape="3" size="24"/>
			<output>
				<port id="1" precision="I64">
					<dim>3</dim>
				</port>
			</output>
		</layer>
		<layer id="510" name="StatefulPartitionedCall/functional_1/tcn_1/lambda_1/strided_slice/Cast_220239_const" type="Const" version="opset1">
			<data element_type="i64" offset="391480" shape="3" size="24"/>
			<output>
				<port id="1" precision="I64">
					<dim>3</dim>
				</port>
			</output>
		</layer>
		<layer id="511" name="StatefulPartitionedCall/functional_1/tcn_1/lambda_1/strided_slice/Cast_320241_const" type="Const" version="opset1">
			<data element_type="i64" offset="391504" shape="3" size="24"/>
			<output>
				<port id="1" precision="I64">
					<dim>3</dim>
				</port>
			</output>
		</layer>
		<layer id="512" name="StatefulPartitionedCall/functional_1/tcn_1/lambda_1/strided_slice" type="StridedSlice" version="opset1">
			<data begin_mask="1,0,1" ellipsis_mask="0,0,0" end_mask="1,0,1" new_axis_mask="0,0,0" shrink_axis_mask="0,1,0"/>
			<input>
				<port id="0">
					<dim>1</dim>
					<dim>5</dim>
					<dim>64</dim>
				</port>
				<port id="1">
					<dim>3</dim>
				</port>
				<port id="2">
					<dim>3</dim>
				</port>
				<port id="3">
					<dim>3</dim>
				</port>
			</input>
			<output>
				<port id="4" precision="FP16">
					<dim>1</dim>
					<dim>64</dim>
				</port>
			</output>
		</layer>
		<layer id="513" name="StatefulPartitionedCall/functional_1/dense/MatMul/1_port_transpose14726_const" type="Const" version="opset1">
			<data element_type="f16" offset="391528" shape="1,64" size="128"/>
			<output>
				<port id="1" precision="FP16">
					<dim>1</dim>
					<dim>64</dim>
				</port>
			</output>
		</layer>
		<layer id="514" name="StatefulPartitionedCall/functional_1/dense/MatMul" type="MatMul" version="opset1">
			<data transpose_a="False" transpose_b="True"/>
			<input>
				<port id="0">
					<dim>1</dim>
					<dim>64</dim>
				</port>
				<port id="1">
					<dim>1</dim>
					<dim>64</dim>
				</port>
			</input>
			<output>
				<port id="2" precision="FP16">
					<dim>1</dim>
					<dim>1</dim>
				</port>
			</output>
		</layer>
		<layer id="515" name="StatefulPartitionedCall/functional_1/dense/BiasAdd/ReadVariableOp/Output_0/Data_/copy_const" type="Const" version="opset1">
			<data element_type="f16" offset="391656" shape="1,1" size="2"/>
			<output>
				<port id="1" precision="FP16">
					<dim>1</dim>
					<dim>1</dim>
				</port>
			</output>
		</layer>
		<layer id="516" name="StatefulPartitionedCall/functional_1/dense/BiasAdd/Add" type="Add" version="opset1">
			<input>
				<port id="0">
					<dim>1</dim>
					<dim>1</dim>
				</port>
				<port id="1">
					<dim>1</dim>
					<dim>1</dim>
				</port>
			</input>
			<output>
				<port id="2" precision="FP16">
					<dim>1</dim>
					<dim>1</dim>
				</port>
			</output>
		</layer>
		<layer id="517" name="Identity/sink_port_0" type="Result" version="opset1">
			<input>
				<port id="0">
					<dim>1</dim>
					<dim>1</dim>
				</port>
			</input>
		</layer>
	</layers>
	<edges>
		<edge from-layer="0" from-port="0" to-layer="2" to-port="0"/>
		<edge from-layer="1" from-port="1" to-layer="2" to-port="1"/>
		<edge from-layer="2" from-port="2" to-layer="4" to-port="0"/>
		<edge from-layer="3" from-port="1" to-layer="4" to-port="1"/>
		<edge from-layer="4" from-port="2" to-layer="6" to-port="0"/>
		<edge from-layer="5" from-port="1" to-layer="6" to-port="1"/>
		<edge from-layer="6" from-port="2" to-layer="8" to-port="0"/>
		<edge from-layer="7" from-port="1" to-layer="8" to-port="1"/>
		<edge from-layer="8" from-port="2" to-layer="10" to-port="0"/>
		<edge from-layer="9" from-port="1" to-layer="10" to-port="1"/>
		<edge from-layer="10" from-port="2" to-layer="12" to-port="0"/>
		<edge from-layer="11" from-port="1" to-layer="12" to-port="1"/>
		<edge from-layer="0" from-port="0" to-layer="14" to-port="0"/>
		<edge from-layer="13" from-port="1" to-layer="14" to-port="1"/>
		<edge from-layer="14" from-port="2" to-layer="16" to-port="0"/>
		<edge from-layer="15" from-port="1" to-layer="16" to-port="1"/>
		<edge from-layer="16" from-port="2" to-layer="18" to-port="0"/>
		<edge from-layer="17" from-port="1" to-layer="18" to-port="1"/>
		<edge from-layer="18" from-port="2" to-layer="20" to-port="0"/>
		<edge from-layer="19" from-port="1" to-layer="20" to-port="1"/>
		<edge from-layer="20" from-port="2" to-layer="22" to-port="0"/>
		<edge from-layer="21" from-port="1" to-layer="22" to-port="1"/>
		<edge from-layer="22" from-port="2" to-layer="24" to-port="0"/>
		<edge from-layer="23" from-port="1" to-layer="24" to-port="1"/>
		<edge from-layer="24" from-port="2" to-layer="25" to-port="0"/>
		<edge from-layer="25" from-port="1" to-layer="27" to-port="0"/>
		<edge from-layer="26" from-port="1" to-layer="27" to-port="1"/>
		<edge from-layer="27" from-port="2" to-layer="29" to-port="0"/>
		<edge from-layer="28" from-port="1" to-layer="29" to-port="1"/>
		<edge from-layer="29" from-port="2" to-layer="31" to-port="0"/>
		<edge from-layer="30" from-port="1" to-layer="31" to-port="1"/>
		<edge from-layer="31" from-port="2" to-layer="33" to-port="0"/>
		<edge from-layer="32" from-port="1" to-layer="33" to-port="1"/>
		<edge from-layer="33" from-port="2" to-layer="35" to-port="0"/>
		<edge from-layer="34" from-port="1" to-layer="35" to-port="1"/>
		<edge from-layer="35" from-port="2" to-layer="37" to-port="0"/>
		<edge from-layer="36" from-port="1" to-layer="37" to-port="1"/>
		<edge from-layer="37" from-port="2" to-layer="38" to-port="0"/>
		<edge from-layer="12" from-port="2" to-layer="39" to-port="0"/>
		<edge from-layer="38" from-port="1" to-layer="39" to-port="1"/>
		<edge from-layer="39" from-port="2" to-layer="40" to-port="0"/>
		<edge from-layer="40" from-port="1" to-layer="44" to-port="0"/>
		<edge from-layer="41" from-port="1" to-layer="44" to-port="1"/>
		<edge from-layer="42" from-port="1" to-layer="44" to-port="2"/>
		<edge from-layer="43" from-port="1" to-layer="44" to-port="3"/>
		<edge from-layer="44" from-port="4" to-layer="46" to-port="0"/>
		<edge from-layer="45" from-port="1" to-layer="46" to-port="1"/>
		<edge from-layer="46" from-port="2" to-layer="48" to-port="0"/>
		<edge from-layer="47" from-port="1" to-layer="48" to-port="1"/>
		<edge from-layer="48" from-port="2" to-layer="50" to-port="0"/>
		<edge from-layer="49" from-port="1" to-layer="50" to-port="1"/>
		<edge from-layer="50" from-port="2" to-layer="52" to-port="0"/>
		<edge from-layer="51" from-port="1" to-layer="52" to-port="1"/>
		<edge from-layer="52" from-port="2" to-layer="54" to-port="0"/>
		<edge from-layer="53" from-port="1" to-layer="54" to-port="1"/>
		<edge from-layer="54" from-port="2" to-layer="58" to-port="0"/>
		<edge from-layer="55" from-port="1" to-layer="58" to-port="1"/>
		<edge from-layer="56" from-port="1" to-layer="58" to-port="2"/>
		<edge from-layer="57" from-port="1" to-layer="58" to-port="3"/>
		<edge from-layer="58" from-port="4" to-layer="60" to-port="0"/>
		<edge from-layer="59" from-port="1" to-layer="60" to-port="1"/>
		<edge from-layer="60" from-port="2" to-layer="61" to-port="0"/>
		<edge from-layer="61" from-port="1" to-layer="65" to-port="0"/>
		<edge from-layer="62" from-port="1" to-layer="65" to-port="1"/>
		<edge from-layer="63" from-port="1" to-layer="65" to-port="2"/>
		<edge from-layer="64" from-port="1" to-layer="65" to-port="3"/>
		<edge from-layer="65" from-port="4" to-layer="67" to-port="0"/>
		<edge from-layer="66" from-port="1" to-layer="67" to-port="1"/>
		<edge from-layer="67" from-port="2" to-layer="69" to-port="0"/>
		<edge from-layer="68" from-port="1" to-layer="69" to-port="1"/>
		<edge from-layer="69" from-port="2" to-layer="71" to-port="0"/>
		<edge from-layer="70" from-port="1" to-layer="71" to-port="1"/>
		<edge from-layer="71" from-port="2" to-layer="73" to-port="0"/>
		<edge from-layer="72" from-port="1" to-layer="73" to-port="1"/>
		<edge from-layer="73" from-port="2" to-layer="75" to-port="0"/>
		<edge from-layer="74" from-port="1" to-layer="75" to-port="1"/>
		<edge from-layer="75" from-port="2" to-layer="79" to-port="0"/>
		<edge from-layer="76" from-port="1" to-layer="79" to-port="1"/>
		<edge from-layer="77" from-port="1" to-layer="79" to-port="2"/>
		<edge from-layer="78" from-port="1" to-layer="79" to-port="3"/>
		<edge from-layer="79" from-port="4" to-layer="81" to-port="0"/>
		<edge from-layer="80" from-port="1" to-layer="81" to-port="1"/>
		<edge from-layer="81" from-port="2" to-layer="82" to-port="0"/>
		<edge from-layer="40" from-port="1" to-layer="83" to-port="0"/>
		<edge from-layer="82" from-port="1" to-layer="83" to-port="1"/>
		<edge from-layer="83" from-port="2" to-layer="84" to-port="0"/>
		<edge from-layer="84" from-port="1" to-layer="88" to-port="0"/>
		<edge from-layer="85" from-port="1" to-layer="88" to-port="1"/>
		<edge from-layer="86" from-port="1" to-layer="88" to-port="2"/>
		<edge from-layer="87" from-port="1" to-layer="88" to-port="3"/>
		<edge from-layer="88" from-port="4" to-layer="90" to-port="0"/>
		<edge from-layer="89" from-port="1" to-layer="90" to-port="1"/>
		<edge from-layer="90" from-port="2" to-layer="92" to-port="0"/>
		<edge from-layer="91" from-port="1" to-layer="92" to-port="1"/>
		<edge from-layer="92" from-port="2" to-layer="94" to-port="0"/>
		<edge from-layer="93" from-port="1" to-layer="94" to-port="1"/>
		<edge from-layer="94" from-port="2" to-layer="96" to-port="0"/>
		<edge from-layer="95" from-port="1" to-layer="96" to-port="1"/>
		<edge from-layer="96" from-port="2" to-layer="98" to-port="0"/>
		<edge from-layer="97" from-port="1" to-layer="98" to-port="1"/>
		<edge from-layer="98" from-port="2" to-layer="102" to-port="0"/>
		<edge from-layer="99" from-port="1" to-layer="102" to-port="1"/>
		<edge from-layer="100" from-port="1" to-layer="102" to-port="2"/>
		<edge from-layer="101" from-port="1" to-layer="102" to-port="3"/>
		<edge from-layer="102" from-port="4" to-layer="104" to-port="0"/>
		<edge from-layer="103" from-port="1" to-layer="104" to-port="1"/>
		<edge from-layer="104" from-port="2" to-layer="105" to-port="0"/>
		<edge from-layer="105" from-port="1" to-layer="109" to-port="0"/>
		<edge from-layer="106" from-port="1" to-layer="109" to-port="1"/>
		<edge from-layer="107" from-port="1" to-layer="109" to-port="2"/>
		<edge from-layer="108" from-port="1" to-layer="109" to-port="3"/>
		<edge from-layer="109" from-port="4" to-layer="111" to-port="0"/>
		<edge from-layer="110" from-port="1" to-layer="111" to-port="1"/>
		<edge from-layer="111" from-port="2" to-layer="113" to-port="0"/>
		<edge from-layer="112" from-port="1" to-layer="113" to-port="1"/>
		<edge from-layer="113" from-port="2" to-layer="115" to-port="0"/>
		<edge from-layer="114" from-port="1" to-layer="115" to-port="1"/>
		<edge from-layer="115" from-port="2" to-layer="117" to-port="0"/>
		<edge from-layer="116" from-port="1" to-layer="117" to-port="1"/>
		<edge from-layer="117" from-port="2" to-layer="119" to-port="0"/>
		<edge from-layer="118" from-port="1" to-layer="119" to-port="1"/>
		<edge from-layer="119" from-port="2" to-layer="123" to-port="0"/>
		<edge from-layer="120" from-port="1" to-layer="123" to-port="1"/>
		<edge from-layer="121" from-port="1" to-layer="123" to-port="2"/>
		<edge from-layer="122" from-port="1" to-layer="123" to-port="3"/>
		<edge from-layer="123" from-port="4" to-layer="125" to-port="0"/>
		<edge from-layer="124" from-port="1" to-layer="125" to-port="1"/>
		<edge from-layer="125" from-port="2" to-layer="126" to-port="0"/>
		<edge from-layer="84" from-port="1" to-layer="127" to-port="0"/>
		<edge from-layer="126" from-port="1" to-layer="127" to-port="1"/>
		<edge from-layer="127" from-port="2" to-layer="128" to-port="0"/>
		<edge from-layer="128" from-port="1" to-layer="132" to-port="0"/>
		<edge from-layer="129" from-port="1" to-layer="132" to-port="1"/>
		<edge from-layer="130" from-port="1" to-layer="132" to-port="2"/>
		<edge from-layer="131" from-port="1" to-layer="132" to-port="3"/>
		<edge from-layer="132" from-port="4" to-layer="134" to-port="0"/>
		<edge from-layer="133" from-port="1" to-layer="134" to-port="1"/>
		<edge from-layer="134" from-port="2" to-layer="136" to-port="0"/>
		<edge from-layer="135" from-port="1" to-layer="136" to-port="1"/>
		<edge from-layer="136" from-port="2" to-layer="138" to-port="0"/>
		<edge from-layer="137" from-port="1" to-layer="138" to-port="1"/>
		<edge from-layer="138" from-port="2" to-layer="140" to-port="0"/>
		<edge from-layer="139" from-port="1" to-layer="140" to-port="1"/>
		<edge from-layer="140" from-port="2" to-layer="142" to-port="0"/>
		<edge from-layer="141" from-port="1" to-layer="142" to-port="1"/>
		<edge from-layer="142" from-port="2" to-layer="146" to-port="0"/>
		<edge from-layer="143" from-port="1" to-layer="146" to-port="1"/>
		<edge from-layer="144" from-port="1" to-layer="146" to-port="2"/>
		<edge from-layer="145" from-port="1" to-layer="146" to-port="3"/>
		<edge from-layer="146" from-port="4" to-layer="148" to-port="0"/>
		<edge from-layer="147" from-port="1" to-layer="148" to-port="1"/>
		<edge from-layer="148" from-port="2" to-layer="149" to-port="0"/>
		<edge from-layer="149" from-port="1" to-layer="153" to-port="0"/>
		<edge from-layer="150" from-port="1" to-layer="153" to-port="1"/>
		<edge from-layer="151" from-port="1" to-layer="153" to-port="2"/>
		<edge from-layer="152" from-port="1" to-layer="153" to-port="3"/>
		<edge from-layer="153" from-port="4" to-layer="155" to-port="0"/>
		<edge from-layer="154" from-port="1" to-layer="155" to-port="1"/>
		<edge from-layer="155" from-port="2" to-layer="157" to-port="0"/>
		<edge from-layer="156" from-port="1" to-layer="157" to-port="1"/>
		<edge from-layer="157" from-port="2" to-layer="159" to-port="0"/>
		<edge from-layer="158" from-port="1" to-layer="159" to-port="1"/>
		<edge from-layer="159" from-port="2" to-layer="161" to-port="0"/>
		<edge from-layer="160" from-port="1" to-layer="161" to-port="1"/>
		<edge from-layer="161" from-port="2" to-layer="163" to-port="0"/>
		<edge from-layer="162" from-port="1" to-layer="163" to-port="1"/>
		<edge from-layer="163" from-port="2" to-layer="167" to-port="0"/>
		<edge from-layer="164" from-port="1" to-layer="167" to-port="1"/>
		<edge from-layer="165" from-port="1" to-layer="167" to-port="2"/>
		<edge from-layer="166" from-port="1" to-layer="167" to-port="3"/>
		<edge from-layer="167" from-port="4" to-layer="169" to-port="0"/>
		<edge from-layer="168" from-port="1" to-layer="169" to-port="1"/>
		<edge from-layer="169" from-port="2" to-layer="170" to-port="0"/>
		<edge from-layer="128" from-port="1" to-layer="171" to-port="0"/>
		<edge from-layer="170" from-port="1" to-layer="171" to-port="1"/>
		<edge from-layer="171" from-port="2" to-layer="172" to-port="0"/>
		<edge from-layer="172" from-port="1" to-layer="176" to-port="0"/>
		<edge from-layer="173" from-port="1" to-layer="176" to-port="1"/>
		<edge from-layer="174" from-port="1" to-layer="176" to-port="2"/>
		<edge from-layer="175" from-port="1" to-layer="176" to-port="3"/>
		<edge from-layer="176" from-port="4" to-layer="178" to-port="0"/>
		<edge from-layer="177" from-port="1" to-layer="178" to-port="1"/>
		<edge from-layer="178" from-port="2" to-layer="180" to-port="0"/>
		<edge from-layer="179" from-port="1" to-layer="180" to-port="1"/>
		<edge from-layer="180" from-port="2" to-layer="182" to-port="0"/>
		<edge from-layer="181" from-port="1" to-layer="182" to-port="1"/>
		<edge from-layer="182" from-port="2" to-layer="184" to-port="0"/>
		<edge from-layer="183" from-port="1" to-layer="184" to-port="1"/>
		<edge from-layer="184" from-port="2" to-layer="186" to-port="0"/>
		<edge from-layer="185" from-port="1" to-layer="186" to-port="1"/>
		<edge from-layer="186" from-port="2" to-layer="190" to-port="0"/>
		<edge from-layer="187" from-port="1" to-layer="190" to-port="1"/>
		<edge from-layer="188" from-port="1" to-layer="190" to-port="2"/>
		<edge from-layer="189" from-port="1" to-layer="190" to-port="3"/>
		<edge from-layer="190" from-port="4" to-layer="192" to-port="0"/>
		<edge from-layer="191" from-port="1" to-layer="192" to-port="1"/>
		<edge from-layer="192" from-port="2" to-layer="193" to-port="0"/>
		<edge from-layer="193" from-port="1" to-layer="197" to-port="0"/>
		<edge from-layer="194" from-port="1" to-layer="197" to-port="1"/>
		<edge from-layer="195" from-port="1" to-layer="197" to-port="2"/>
		<edge from-layer="196" from-port="1" to-layer="197" to-port="3"/>
		<edge from-layer="197" from-port="4" to-layer="199" to-port="0"/>
		<edge from-layer="198" from-port="1" to-layer="199" to-port="1"/>
		<edge from-layer="199" from-port="2" to-layer="201" to-port="0"/>
		<edge from-layer="200" from-port="1" to-layer="201" to-port="1"/>
		<edge from-layer="201" from-port="2" to-layer="203" to-port="0"/>
		<edge from-layer="202" from-port="1" to-layer="203" to-port="1"/>
		<edge from-layer="203" from-port="2" to-layer="205" to-port="0"/>
		<edge from-layer="204" from-port="1" to-layer="205" to-port="1"/>
		<edge from-layer="205" from-port="2" to-layer="207" to-port="0"/>
		<edge from-layer="206" from-port="1" to-layer="207" to-port="1"/>
		<edge from-layer="207" from-port="2" to-layer="211" to-port="0"/>
		<edge from-layer="208" from-port="1" to-layer="211" to-port="1"/>
		<edge from-layer="209" from-port="1" to-layer="211" to-port="2"/>
		<edge from-layer="210" from-port="1" to-layer="211" to-port="3"/>
		<edge from-layer="211" from-port="4" to-layer="213" to-port="0"/>
		<edge from-layer="212" from-port="1" to-layer="213" to-port="1"/>
		<edge from-layer="213" from-port="2" to-layer="214" to-port="0"/>
		<edge from-layer="172" from-port="1" to-layer="215" to-port="0"/>
		<edge from-layer="214" from-port="1" to-layer="215" to-port="1"/>
		<edge from-layer="215" from-port="2" to-layer="216" to-port="0"/>
		<edge from-layer="216" from-port="1" to-layer="220" to-port="0"/>
		<edge from-layer="217" from-port="1" to-layer="220" to-port="1"/>
		<edge from-layer="218" from-port="1" to-layer="220" to-port="2"/>
		<edge from-layer="219" from-port="1" to-layer="220" to-port="3"/>
		<edge from-layer="220" from-port="4" to-layer="222" to-port="0"/>
		<edge from-layer="221" from-port="1" to-layer="222" to-port="1"/>
		<edge from-layer="222" from-port="2" to-layer="224" to-port="0"/>
		<edge from-layer="223" from-port="1" to-layer="224" to-port="1"/>
		<edge from-layer="224" from-port="2" to-layer="226" to-port="0"/>
		<edge from-layer="225" from-port="1" to-layer="226" to-port="1"/>
		<edge from-layer="226" from-port="2" to-layer="228" to-port="0"/>
		<edge from-layer="227" from-port="1" to-layer="228" to-port="1"/>
		<edge from-layer="228" from-port="2" to-layer="230" to-port="0"/>
		<edge from-layer="229" from-port="1" to-layer="230" to-port="1"/>
		<edge from-layer="230" from-port="2" to-layer="234" to-port="0"/>
		<edge from-layer="231" from-port="1" to-layer="234" to-port="1"/>
		<edge from-layer="232" from-port="1" to-layer="234" to-port="2"/>
		<edge from-layer="233" from-port="1" to-layer="234" to-port="3"/>
		<edge from-layer="234" from-port="4" to-layer="236" to-port="0"/>
		<edge from-layer="235" from-port="1" to-layer="236" to-port="1"/>
		<edge from-layer="236" from-port="2" to-layer="237" to-port="0"/>
		<edge from-layer="237" from-port="1" to-layer="241" to-port="0"/>
		<edge from-layer="238" from-port="1" to-layer="241" to-port="1"/>
		<edge from-layer="239" from-port="1" to-layer="241" to-port="2"/>
		<edge from-layer="240" from-port="1" to-layer="241" to-port="3"/>
		<edge from-layer="241" from-port="4" to-layer="243" to-port="0"/>
		<edge from-layer="242" from-port="1" to-layer="243" to-port="1"/>
		<edge from-layer="243" from-port="2" to-layer="245" to-port="0"/>
		<edge from-layer="244" from-port="1" to-layer="245" to-port="1"/>
		<edge from-layer="245" from-port="2" to-layer="247" to-port="0"/>
		<edge from-layer="246" from-port="1" to-layer="247" to-port="1"/>
		<edge from-layer="247" from-port="2" to-layer="249" to-port="0"/>
		<edge from-layer="248" from-port="1" to-layer="249" to-port="1"/>
		<edge from-layer="249" from-port="2" to-layer="251" to-port="0"/>
		<edge from-layer="250" from-port="1" to-layer="251" to-port="1"/>
		<edge from-layer="251" from-port="2" to-layer="255" to-port="0"/>
		<edge from-layer="252" from-port="1" to-layer="255" to-port="1"/>
		<edge from-layer="253" from-port="1" to-layer="255" to-port="2"/>
		<edge from-layer="254" from-port="1" to-layer="255" to-port="3"/>
		<edge from-layer="255" from-port="4" to-layer="257" to-port="0"/>
		<edge from-layer="256" from-port="1" to-layer="257" to-port="1"/>
		<edge from-layer="257" from-port="2" to-layer="258" to-port="0"/>
		<edge from-layer="216" from-port="1" to-layer="259" to-port="0"/>
		<edge from-layer="258" from-port="1" to-layer="259" to-port="1"/>
		<edge from-layer="259" from-port="2" to-layer="260" to-port="0"/>
		<edge from-layer="260" from-port="1" to-layer="262" to-port="0"/>
		<edge from-layer="261" from-port="1" to-layer="262" to-port="1"/>
		<edge from-layer="262" from-port="2" to-layer="264" to-port="0"/>
		<edge from-layer="263" from-port="1" to-layer="264" to-port="1"/>
		<edge from-layer="264" from-port="2" to-layer="266" to-port="0"/>
		<edge from-layer="265" from-port="1" to-layer="266" to-port="1"/>
		<edge from-layer="266" from-port="2" to-layer="268" to-port="0"/>
		<edge from-layer="267" from-port="1" to-layer="268" to-port="1"/>
		<edge from-layer="268" from-port="2" to-layer="270" to-port="0"/>
		<edge from-layer="269" from-port="1" to-layer="270" to-port="1"/>
		<edge from-layer="270" from-port="2" to-layer="272" to-port="0"/>
		<edge from-layer="271" from-port="1" to-layer="272" to-port="1"/>
		<edge from-layer="272" from-port="2" to-layer="273" to-port="0"/>
		<edge from-layer="273" from-port="1" to-layer="275" to-port="0"/>
		<edge from-layer="274" from-port="1" to-layer="275" to-port="1"/>
		<edge from-layer="275" from-port="2" to-layer="277" to-port="0"/>
		<edge from-layer="276" from-port="1" to-layer="277" to-port="1"/>
		<edge from-layer="277" from-port="2" to-layer="279" to-port="0"/>
		<edge from-layer="278" from-port="1" to-layer="279" to-port="1"/>
		<edge from-layer="279" from-port="2" to-layer="281" to-port="0"/>
		<edge from-layer="280" from-port="1" to-layer="281" to-port="1"/>
		<edge from-layer="281" from-port="2" to-layer="283" to-port="0"/>
		<edge from-layer="282" from-port="1" to-layer="283" to-port="1"/>
		<edge from-layer="283" from-port="2" to-layer="285" to-port="0"/>
		<edge from-layer="284" from-port="1" to-layer="285" to-port="1"/>
		<edge from-layer="285" from-port="2" to-layer="286" to-port="0"/>
		<edge from-layer="260" from-port="1" to-layer="287" to-port="0"/>
		<edge from-layer="286" from-port="1" to-layer="287" to-port="1"/>
		<edge from-layer="287" from-port="2" to-layer="288" to-port="0"/>
		<edge from-layer="288" from-port="1" to-layer="292" to-port="0"/>
		<edge from-layer="289" from-port="1" to-layer="292" to-port="1"/>
		<edge from-layer="290" from-port="1" to-layer="292" to-port="2"/>
		<edge from-layer="291" from-port="1" to-layer="292" to-port="3"/>
		<edge from-layer="292" from-port="4" to-layer="294" to-port="0"/>
		<edge from-layer="293" from-port="1" to-layer="294" to-port="1"/>
		<edge from-layer="294" from-port="2" to-layer="296" to-port="0"/>
		<edge from-layer="295" from-port="1" to-layer="296" to-port="1"/>
		<edge from-layer="296" from-port="2" to-layer="298" to-port="0"/>
		<edge from-layer="297" from-port="1" to-layer="298" to-port="1"/>
		<edge from-layer="298" from-port="2" to-layer="300" to-port="0"/>
		<edge from-layer="299" from-port="1" to-layer="300" to-port="1"/>
		<edge from-layer="300" from-port="2" to-layer="302" to-port="0"/>
		<edge from-layer="301" from-port="1" to-layer="302" to-port="1"/>
		<edge from-layer="302" from-port="2" to-layer="306" to-port="0"/>
		<edge from-layer="303" from-port="1" to-layer="306" to-port="1"/>
		<edge from-layer="304" from-port="1" to-layer="306" to-port="2"/>
		<edge from-layer="305" from-port="1" to-layer="306" to-port="3"/>
		<edge from-layer="306" from-port="4" to-layer="308" to-port="0"/>
		<edge from-layer="307" from-port="1" to-layer="308" to-port="1"/>
		<edge from-layer="308" from-port="2" to-layer="309" to-port="0"/>
		<edge from-layer="309" from-port="1" to-layer="313" to-port="0"/>
		<edge from-layer="310" from-port="1" to-layer="313" to-port="1"/>
		<edge from-layer="311" from-port="1" to-layer="313" to-port="2"/>
		<edge from-layer="312" from-port="1" to-layer="313" to-port="3"/>
		<edge from-layer="313" from-port="4" to-layer="315" to-port="0"/>
		<edge from-layer="314" from-port="1" to-layer="315" to-port="1"/>
		<edge from-layer="315" from-port="2" to-layer="317" to-port="0"/>
		<edge from-layer="316" from-port="1" to-layer="317" to-port="1"/>
		<edge from-layer="317" from-port="2" to-layer="319" to-port="0"/>
		<edge from-layer="318" from-port="1" to-layer="319" to-port="1"/>
		<edge from-layer="319" from-port="2" to-layer="321" to-port="0"/>
		<edge from-layer="320" from-port="1" to-layer="321" to-port="1"/>
		<edge from-layer="321" from-port="2" to-layer="323" to-port="0"/>
		<edge from-layer="322" from-port="1" to-layer="323" to-port="1"/>
		<edge from-layer="323" from-port="2" to-layer="327" to-port="0"/>
		<edge from-layer="324" from-port="1" to-layer="327" to-port="1"/>
		<edge from-layer="325" from-port="1" to-layer="327" to-port="2"/>
		<edge from-layer="326" from-port="1" to-layer="327" to-port="3"/>
		<edge from-layer="327" from-port="4" to-layer="329" to-port="0"/>
		<edge from-layer="328" from-port="1" to-layer="329" to-port="1"/>
		<edge from-layer="329" from-port="2" to-layer="330" to-port="0"/>
		<edge from-layer="288" from-port="1" to-layer="331" to-port="0"/>
		<edge from-layer="330" from-port="1" to-layer="331" to-port="1"/>
		<edge from-layer="331" from-port="2" to-layer="332" to-port="0"/>
		<edge from-layer="332" from-port="1" to-layer="336" to-port="0"/>
		<edge from-layer="333" from-port="1" to-layer="336" to-port="1"/>
		<edge from-layer="334" from-port="1" to-layer="336" to-port="2"/>
		<edge from-layer="335" from-port="1" to-layer="336" to-port="3"/>
		<edge from-layer="336" from-port="4" to-layer="338" to-port="0"/>
		<edge from-layer="337" from-port="1" to-layer="338" to-port="1"/>
		<edge from-layer="338" from-port="2" to-layer="340" to-port="0"/>
		<edge from-layer="339" from-port="1" to-layer="340" to-port="1"/>
		<edge from-layer="340" from-port="2" to-layer="342" to-port="0"/>
		<edge from-layer="341" from-port="1" to-layer="342" to-port="1"/>
		<edge from-layer="342" from-port="2" to-layer="344" to-port="0"/>
		<edge from-layer="343" from-port="1" to-layer="344" to-port="1"/>
		<edge from-layer="344" from-port="2" to-layer="346" to-port="0"/>
		<edge from-layer="345" from-port="1" to-layer="346" to-port="1"/>
		<edge from-layer="346" from-port="2" to-layer="350" to-port="0"/>
		<edge from-layer="347" from-port="1" to-layer="350" to-port="1"/>
		<edge from-layer="348" from-port="1" to-layer="350" to-port="2"/>
		<edge from-layer="349" from-port="1" to-layer="350" to-port="3"/>
		<edge from-layer="350" from-port="4" to-layer="352" to-port="0"/>
		<edge from-layer="351" from-port="1" to-layer="352" to-port="1"/>
		<edge from-layer="352" from-port="2" to-layer="353" to-port="0"/>
		<edge from-layer="353" from-port="1" to-layer="357" to-port="0"/>
		<edge from-layer="354" from-port="1" to-layer="357" to-port="1"/>
		<edge from-layer="355" from-port="1" to-layer="357" to-port="2"/>
		<edge from-layer="356" from-port="1" to-layer="357" to-port="3"/>
		<edge from-layer="357" from-port="4" to-layer="359" to-port="0"/>
		<edge from-layer="358" from-port="1" to-layer="359" to-port="1"/>
		<edge from-layer="359" from-port="2" to-layer="361" to-port="0"/>
		<edge from-layer="360" from-port="1" to-layer="361" to-port="1"/>
		<edge from-layer="361" from-port="2" to-layer="363" to-port="0"/>
		<edge from-layer="362" from-port="1" to-layer="363" to-port="1"/>
		<edge from-layer="363" from-port="2" to-layer="365" to-port="0"/>
		<edge from-layer="364" from-port="1" to-layer="365" to-port="1"/>
		<edge from-layer="365" from-port="2" to-layer="367" to-port="0"/>
		<edge from-layer="366" from-port="1" to-layer="367" to-port="1"/>
		<edge from-layer="367" from-port="2" to-layer="371" to-port="0"/>
		<edge from-layer="368" from-port="1" to-layer="371" to-port="1"/>
		<edge from-layer="369" from-port="1" to-layer="371" to-port="2"/>
		<edge from-layer="370" from-port="1" to-layer="371" to-port="3"/>
		<edge from-layer="371" from-port="4" to-layer="373" to-port="0"/>
		<edge from-layer="372" from-port="1" to-layer="373" to-port="1"/>
		<edge from-layer="373" from-port="2" to-layer="374" to-port="0"/>
		<edge from-layer="332" from-port="1" to-layer="375" to-port="0"/>
		<edge from-layer="374" from-port="1" to-layer="375" to-port="1"/>
		<edge from-layer="375" from-port="2" to-layer="376" to-port="0"/>
		<edge from-layer="376" from-port="1" to-layer="380" to-port="0"/>
		<edge from-layer="377" from-port="1" to-layer="380" to-port="1"/>
		<edge from-layer="378" from-port="1" to-layer="380" to-port="2"/>
		<edge from-layer="379" from-port="1" to-layer="380" to-port="3"/>
		<edge from-layer="380" from-port="4" to-layer="382" to-port="0"/>
		<edge from-layer="381" from-port="1" to-layer="382" to-port="1"/>
		<edge from-layer="382" from-port="2" to-layer="384" to-port="0"/>
		<edge from-layer="383" from-port="1" to-layer="384" to-port="1"/>
		<edge from-layer="384" from-port="2" to-layer="386" to-port="0"/>
		<edge from-layer="385" from-port="1" to-layer="386" to-port="1"/>
		<edge from-layer="386" from-port="2" to-layer="388" to-port="0"/>
		<edge from-layer="387" from-port="1" to-layer="388" to-port="1"/>
		<edge from-layer="388" from-port="2" to-layer="390" to-port="0"/>
		<edge from-layer="389" from-port="1" to-layer="390" to-port="1"/>
		<edge from-layer="390" from-port="2" to-layer="394" to-port="0"/>
		<edge from-layer="391" from-port="1" to-layer="394" to-port="1"/>
		<edge from-layer="392" from-port="1" to-layer="394" to-port="2"/>
		<edge from-layer="393" from-port="1" to-layer="394" to-port="3"/>
		<edge from-layer="394" from-port="4" to-layer="396" to-port="0"/>
		<edge from-layer="395" from-port="1" to-layer="396" to-port="1"/>
		<edge from-layer="396" from-port="2" to-layer="397" to-port="0"/>
		<edge from-layer="397" from-port="1" to-layer="401" to-port="0"/>
		<edge from-layer="398" from-port="1" to-layer="401" to-port="1"/>
		<edge from-layer="399" from-port="1" to-layer="401" to-port="2"/>
		<edge from-layer="400" from-port="1" to-layer="401" to-port="3"/>
		<edge from-layer="401" from-port="4" to-layer="403" to-port="0"/>
		<edge from-layer="402" from-port="1" to-layer="403" to-port="1"/>
		<edge from-layer="403" from-port="2" to-layer="405" to-port="0"/>
		<edge from-layer="404" from-port="1" to-layer="405" to-port="1"/>
		<edge from-layer="405" from-port="2" to-layer="407" to-port="0"/>
		<edge from-layer="406" from-port="1" to-layer="407" to-port="1"/>
		<edge from-layer="407" from-port="2" to-layer="409" to-port="0"/>
		<edge from-layer="408" from-port="1" to-layer="409" to-port="1"/>
		<edge from-layer="409" from-port="2" to-layer="411" to-port="0"/>
		<edge from-layer="410" from-port="1" to-layer="411" to-port="1"/>
		<edge from-layer="411" from-port="2" to-layer="415" to-port="0"/>
		<edge from-layer="412" from-port="1" to-layer="415" to-port="1"/>
		<edge from-layer="413" from-port="1" to-layer="415" to-port="2"/>
		<edge from-layer="414" from-port="1" to-layer="415" to-port="3"/>
		<edge from-layer="415" from-port="4" to-layer="417" to-port="0"/>
		<edge from-layer="416" from-port="1" to-layer="417" to-port="1"/>
		<edge from-layer="417" from-port="2" to-layer="418" to-port="0"/>
		<edge from-layer="376" from-port="1" to-layer="419" to-port="0"/>
		<edge from-layer="418" from-port="1" to-layer="419" to-port="1"/>
		<edge from-layer="419" from-port="2" to-layer="420" to-port="0"/>
		<edge from-layer="420" from-port="1" to-layer="424" to-port="0"/>
		<edge from-layer="421" from-port="1" to-layer="424" to-port="1"/>
		<edge from-layer="422" from-port="1" to-layer="424" to-port="2"/>
		<edge from-layer="423" from-port="1" to-layer="424" to-port="3"/>
		<edge from-layer="424" from-port="4" to-layer="426" to-port="0"/>
		<edge from-layer="425" from-port="1" to-layer="426" to-port="1"/>
		<edge from-layer="426" from-port="2" to-layer="428" to-port="0"/>
		<edge from-layer="427" from-port="1" to-layer="428" to-port="1"/>
		<edge from-layer="428" from-port="2" to-layer="430" to-port="0"/>
		<edge from-layer="429" from-port="1" to-layer="430" to-port="1"/>
		<edge from-layer="430" from-port="2" to-layer="432" to-port="0"/>
		<edge from-layer="431" from-port="1" to-layer="432" to-port="1"/>
		<edge from-layer="432" from-port="2" to-layer="434" to-port="0"/>
		<edge from-layer="433" from-port="1" to-layer="434" to-port="1"/>
		<edge from-layer="434" from-port="2" to-layer="438" to-port="0"/>
		<edge from-layer="435" from-port="1" to-layer="438" to-port="1"/>
		<edge from-layer="436" from-port="1" to-layer="438" to-port="2"/>
		<edge from-layer="437" from-port="1" to-layer="438" to-port="3"/>
		<edge from-layer="438" from-port="4" to-layer="440" to-port="0"/>
		<edge from-layer="439" from-port="1" to-layer="440" to-port="1"/>
		<edge from-layer="440" from-port="2" to-layer="441" to-port="0"/>
		<edge from-layer="441" from-port="1" to-layer="445" to-port="0"/>
		<edge from-layer="442" from-port="1" to-layer="445" to-port="1"/>
		<edge from-layer="443" from-port="1" to-layer="445" to-port="2"/>
		<edge from-layer="444" from-port="1" to-layer="445" to-port="3"/>
		<edge from-layer="445" from-port="4" to-layer="447" to-port="0"/>
		<edge from-layer="446" from-port="1" to-layer="447" to-port="1"/>
		<edge from-layer="447" from-port="2" to-layer="449" to-port="0"/>
		<edge from-layer="448" from-port="1" to-layer="449" to-port="1"/>
		<edge from-layer="449" from-port="2" to-layer="451" to-port="0"/>
		<edge from-layer="450" from-port="1" to-layer="451" to-port="1"/>
		<edge from-layer="451" from-port="2" to-layer="453" to-port="0"/>
		<edge from-layer="452" from-port="1" to-layer="453" to-port="1"/>
		<edge from-layer="453" from-port="2" to-layer="455" to-port="0"/>
		<edge from-layer="454" from-port="1" to-layer="455" to-port="1"/>
		<edge from-layer="455" from-port="2" to-layer="459" to-port="0"/>
		<edge from-layer="456" from-port="1" to-layer="459" to-port="1"/>
		<edge from-layer="457" from-port="1" to-layer="459" to-port="2"/>
		<edge from-layer="458" from-port="1" to-layer="459" to-port="3"/>
		<edge from-layer="459" from-port="4" to-layer="461" to-port="0"/>
		<edge from-layer="460" from-port="1" to-layer="461" to-port="1"/>
		<edge from-layer="461" from-port="2" to-layer="462" to-port="0"/>
		<edge from-layer="420" from-port="1" to-layer="463" to-port="0"/>
		<edge from-layer="462" from-port="1" to-layer="463" to-port="1"/>
		<edge from-layer="463" from-port="2" to-layer="464" to-port="0"/>
		<edge from-layer="464" from-port="1" to-layer="468" to-port="0"/>
		<edge from-layer="465" from-port="1" to-layer="468" to-port="1"/>
		<edge from-layer="466" from-port="1" to-layer="468" to-port="2"/>
		<edge from-layer="467" from-port="1" to-layer="468" to-port="3"/>
		<edge from-layer="468" from-port="4" to-layer="470" to-port="0"/>
		<edge from-layer="469" from-port="1" to-layer="470" to-port="1"/>
		<edge from-layer="470" from-port="2" to-layer="472" to-port="0"/>
		<edge from-layer="471" from-port="1" to-layer="472" to-port="1"/>
		<edge from-layer="472" from-port="2" to-layer="474" to-port="0"/>
		<edge from-layer="473" from-port="1" to-layer="474" to-port="1"/>
		<edge from-layer="474" from-port="2" to-layer="476" to-port="0"/>
		<edge from-layer="475" from-port="1" to-layer="476" to-port="1"/>
		<edge from-layer="476" from-port="2" to-layer="478" to-port="0"/>
		<edge from-layer="477" from-port="1" to-layer="478" to-port="1"/>
		<edge from-layer="478" from-port="2" to-layer="482" to-port="0"/>
		<edge from-layer="479" from-port="1" to-layer="482" to-port="1"/>
		<edge from-layer="480" from-port="1" to-layer="482" to-port="2"/>
		<edge from-layer="481" from-port="1" to-layer="482" to-port="3"/>
		<edge from-layer="482" from-port="4" to-layer="484" to-port="0"/>
		<edge from-layer="483" from-port="1" to-layer="484" to-port="1"/>
		<edge from-layer="484" from-port="2" to-layer="485" to-port="0"/>
		<edge from-layer="485" from-port="1" to-layer="489" to-port="0"/>
		<edge from-layer="486" from-port="1" to-layer="489" to-port="1"/>
		<edge from-layer="487" from-port="1" to-layer="489" to-port="2"/>
		<edge from-layer="488" from-port="1" to-layer="489" to-port="3"/>
		<edge from-layer="489" from-port="4" to-layer="491" to-port="0"/>
		<edge from-layer="490" from-port="1" to-layer="491" to-port="1"/>
		<edge from-layer="491" from-port="2" to-layer="493" to-port="0"/>
		<edge from-layer="492" from-port="1" to-layer="493" to-port="1"/>
		<edge from-layer="493" from-port="2" to-layer="495" to-port="0"/>
		<edge from-layer="494" from-port="1" to-layer="495" to-port="1"/>
		<edge from-layer="495" from-port="2" to-layer="497" to-port="0"/>
		<edge from-layer="496" from-port="1" to-layer="497" to-port="1"/>
		<edge from-layer="497" from-port="2" to-layer="499" to-port="0"/>
		<edge from-layer="498" from-port="1" to-layer="499" to-port="1"/>
		<edge from-layer="499" from-port="2" to-layer="503" to-port="0"/>
		<edge from-layer="500" from-port="1" to-layer="503" to-port="1"/>
		<edge from-layer="501" from-port="1" to-layer="503" to-port="2"/>
		<edge from-layer="502" from-port="1" to-layer="503" to-port="3"/>
		<edge from-layer="503" from-port="4" to-layer="505" to-port="0"/>
		<edge from-layer="504" from-port="1" to-layer="505" to-port="1"/>
		<edge from-layer="505" from-port="2" to-layer="506" to-port="0"/>
		<edge from-layer="464" from-port="1" to-layer="507" to-port="0"/>
		<edge from-layer="506" from-port="1" to-layer="507" to-port="1"/>
		<edge from-layer="507" from-port="2" to-layer="508" to-port="0"/>
		<edge from-layer="508" from-port="1" to-layer="512" to-port="0"/>
		<edge from-layer="509" from-port="1" to-layer="512" to-port="1"/>
		<edge from-layer="510" from-port="1" to-layer="512" to-port="2"/>
		<edge from-layer="511" from-port="1" to-layer="512" to-port="3"/>
		<edge from-layer="512" from-port="4" to-layer="514" to-port="0"/>
		<edge from-layer="513" from-port="1" to-layer="514" to-port="1"/>
		<edge from-layer="514" from-port="2" to-layer="516" to-port="0"/>
		<edge from-layer="515" from-port="1" to-layer="516" to-port="1"/>
		<edge from-layer="516" from-port="2" to-layer="517" to-port="0"/>
	</edges>
	<meta_data>
		<MO_version value=""/>
		<cli_parameters>
			<blobs_as_inputs value="True"/>
			<data_type value="FP16"/>
			<disable_nhwc_to_nchw value="False"/>
			<disable_resnet_optimization value="False"/>
			<disable_weights_compression value="False"/>
			<enable_concat_optimization value="False"/>
			<extensions value="DIR"/>
			<framework value="tf"/>
			<freeze_placeholder_with_value value="{}"/>
			<generate_deprecated_IR_V2 value="False"/>
			<generate_deprecated_IR_V7 value="False"/>
			<generate_experimental_IR_V10 value="True"/>
			<input_model_is_text value="False"/>
			<input_shape value="[1,5,32]"/>
			<keep_quantize_ops_in_IR value="True"/>
			<keep_shape_ops value="False"/>
			<log_level value="ERROR"/>
			<mean_scale_values value="{}"/>
			<mean_values value="()"/>
			<model_name value="DIR"/>
			<move_to_preprocess value="False"/>
			<output_dir value="DIR"/>
			<placeholder_data_types value="{}"/>
			<placeholder_shapes value="[ 1  5 32]"/>
			<progress value="False"/>
			<reverse_input_channels value="False"/>
			<saved_model_dir value="DIR"/>
			<scale_values value="()"/>
			<silent value="False"/>
			<stream_output value="False"/>
			<unset unset_cli_parameters="batch, disable_fusing, disable_gfusing, finegrain_fusing, input, input_checkpoint, input_meta_graph, input_model, output, saved_model_tags, scale, tensorboard_logdir, tensorflow_custom_layer_libraries, tensorflow_custom_operations_config_update, tensorflow_object_detection_api_pipeline_config, tensorflow_use_custom_operations_config, transformations_config"/>
		</cli_parameters>
	</meta_data>
</net>
